models/lstm_HDFCBANK_NS.pt (torch, 216828 bytes, 11 tensors)

lstm.weight_ih_l0 f4 [256, 4]
0.0015012794 0.07130136 -0.12305298 0.034848522 0.038732667 -0.08097035 -0.047258142 -0.0395946
0.059955712 -0.07438245 -0.042014997 0.0017102261 -0.044154033 0.06704429 0.06466506 -0.05581684
0.020979142 0.030565994 0.10363954 0.021124672 -0.025821984 0.12571222 0.061284777 0.014355256
-0.06670268 0.01464864 -0.13531336 0.08159042 -0.006058585 0.029497102 0.11912329 0.08414191
0.0045106835 -0.11173372 -0.034720022 -0.111281976 0.060003147 0.026296109 0.09347477 -0.018623235
0.004535749 0.081490144 -0.08104153 -0.061130773 0.08977628 -0.0910374 0.0911222 0.011664011
0.042922314 -0.11967965 0.0025097062 -0.10141402 0.020497825 -0.10764985 0.04587742 0.103237055
0.03349157 0.10238009 0.09154969 0.00848936 -0.01951852 -0.12163992 0.014359068 0.0141027775
-0.041941874 0.050253466 -0.10421044 -0.01631171 -0.05552449 -0.1396013 0.06665518 0.07730853
0.118793026 -0.0071293577 0.005233983 0.095252804 0.13730742 0.032658003 0.10062803 0.0034676858
-0.037880804 0.014742158 -0.025504261 0.019149741 0.001933575 0.112524495 -0.053867444 0.015828691
-0.005824759 -0.06680707 0.024401605 0.020232767 0.14748514 0.010165953 -0.11479208 0.024935458
0.04502064 0.09983862 -0.1234852 -0.10029453 0.039079845 0.015341068 -0.0047334717 -0.08515712
0.04997872 0.056439456 0.016195986 -0.009969959 -0.020503415 0.03192787 0.08583878 0.07481619
0.03550982 -0.08522239 0.020713553 -0.046537694 -0.020761188 0.03548974 -0.0011842491 -0.022056274
0.034551546 0.026323693 -0.04920286 -0.0017832475 -0.117983446 0.07919873 -0.037057832 0.08223916
0.05157553 0.047972005 0.020675689 0.0836741 -0.10164837 0.10405373 -0.10538829 -0.064867094
-0.019904934 0.13053201 -0.11358988 0.07002156 0.03661009 -0.09425046 -0.046889883 -0.06630853
-0.10563036 0.003286253 0.109937325 -0.05308263 -0.049449123 0.11875788 -0.09160464 -0.097182535
0.061538946 0.09755141 0.055726033 -0.10681246 -0.054341804 -0.028657896 -0.07330583 -0.06163013
0.059530962 -0.08540313 -0.112037055 -0.081913695 -0.099030636 0.12947184 0.019246845 -0.08335975
0.03479631 0.079449385 0.06770804 0.047000036 -0.035443213 -0.048015766 0.110982716 -0.043617483
-0.07322212 -0.117077775 -0.104191236 -0.12673646 0.08171716 0.054151963 0.102088384 0.020995777
0.038279887 0.08955655 -0.108143345 -0.02034427 -0.068620645 0.10649475 -0.05978506 -0.017965395
-0.11724777 0.1210888 -0.01727234 0.04677236 -0.09713721 -0.1324072 0.04085305 0.021576472
0.10132003 -0.04881207 -0.13706818 0.10370987 -0.008672649 -0.014696848 -0.022500865 0.020021452
-0.0814722 0.13496035 0.103730135 0.09067771 -0.102436304 0.061967526 -0.10910875 0.11957314
0.05220467 -0.10587404 -0.06162034 0.06836381 -0.006762328 0.00435002 0.0389565 0.0025389309
0.15349723 0.15311971 -0.01970847 -0.010376333 0.09948054 -0.066695884 0.07933703 -0.07569285
-0.07893708 -9.993304e-05 0.022648454 -0.043636788 -0.08952583 0.11140592 -0.05155012 0.0806288
0.06871906 0.09551626 -0.030204691 -0.05888119 -0.068907306 -0.11222618 -0.02871627 0.034710918
-0.10846085 0.11152601 0.041596457 -0.06821014 -0.034233194 -0.0069492706 -0.08533534 -0.102493055
00000000: 94c6 c43a 7306 923d 3303 fcbd 53bd 0e3d
00000010: 25a6 1e3d c8d3 a5bd c191 41bd f32d 22bd
00000020: 1f94 753d d355 98bd eb17 2cbd aa29 e03a
00000030: dcda 34bd 844e 893d 1d6f 843d 33a0 64bd
00000040: 73dc ab3c 8965 fa3c f840 d43d a60d ad3c
00000050: a088 d3bc b4ba 003e bf05 7b3d 4f32 6b3c
00000060: 6a9b 88bd d900 703c 968f 0abe e118 a73d
00000070: 1887 c6bb e8a3 f13c e9f6 f33d 9852 ac3d
00000080: 5bce 933b a6d4 e4bd 9536 0ebd cee7 e3bd
00000090: dcc5 753d f06a d73c b36f bf3d c18f 98bc
000000a0: 9fa0 943b 4ee4 a63d 1af9 a5bd 4364 7abd
000000b0: a0dc b73d d171 babd 479e ba3d 681a 3f3c
000000c0: 4fcf 2f3d 9b1a f5bd e279 243b 27b2 cfbd
000000d0: 0eeb a73c 8677 dcbd f6e9 3b3d f36d d33d
000000e0: 752e 093d a7ac d13d 677e bb3d f516 0b3c
000000f0: 4ee5 9fbc 5a1e f9bd 4c42 6b3c 560f 673c
00000100: 3ecb 2bbd 94d6 4d3d 486c d5bd 23a0 85bc
00000110: a66d 63bd a5f3 0ebe 8382 883d ef53 9e3d
00000120: c249 f33d 639d e9bb d581 ab3b e713 c33d
00000130: 519a 0c3e 66c4 053d 1216 ce3d 1d42 633b
00000140: e728 1bbd 1889 713c 50ee d0bc ebdf 9c3c
00000150: 0370 fd3a 3e73 e63d 1ca4 5cbd 2cab 813c
00000160: 9fdd bebb 25d2 88bd e0e5 c73c 30bf a53c
00000170: 5806 173e 198f 263c 1c18 ebbd 7245 cc3c
00000180: 9067 383d 3178 cc3d cfe5 fcbd 3867 cdbd
00000190: 3012 203d 1a59 7b3c 3d1b 9bbb db66 aebd
000001a0: 7cb6 4c3d 0f2d 673d 72ad 843c 0a59 23bc
000001b0: c7f6 a7bc ccc6 023d 3ecc af3d 3b39 993d
000001c0: bf72 113d 1489 aebd 78af a93c 4f9e 3ebd
000001d0: 5e13 aabc b15d 113d ce38 9bba 5caf b4bc
000001e0: ec85 0d3d c9a4 d73c f088 49bd dbbb e9ba
000001f0: 4ea1 f1bd f232 a23d f4c9 17bd 016d a83d
00000200: dd40 533d 4b7e 443d 1060 a93c 545d ab3d
00000210: 052d d0bd 1f1a d53d d1d5 d7bd 0ad9 84bd
00000220: ac0f a3bc 2faa 053e d0a1 e8bd 7767 8f3d
00000230: 76f4 153d 6306 c1bd 9b0f 40bd c4cc 87bd
00000240: bb54 d8bd 2d5e 573b d226 e13d 2c6d 59bd
00000250: 2a8b 4abd 5537 f33d 379b bbbd a307 c7bd
00000260: 4310 7c3d 09c9 c73d fb40 643d 7ec0 dabd
00000270: 8395 5ebd f7c3 eabc 5e21 96bd e06f 7cbd
00000280: bdd6 733d d6e7 aebd af73 e5bd 5ec2 a7bd
00000290: 93d0 cabd 4494 043e 8fab 9d3c 84b8 aabd
000002a0: 9386 0e3d 5cb6 a23d 83aa 8a3d 1c83 403d
000002b0: e72c 11bd 2eac 44bd e84a e33d 3fa8 32bd
000002c0: 7bf5 95bd 79c6 efbd 3762 d5bd 34c7 01be
000002d0: 545b a73d 73ce 5d3d b713 d13d 56ff ab3c
000002e0: 5fcb 1c3d 6d69 b73d 427a ddbd 07a9 a6bc
000002f0: fb88 8cbd eb19 da3d 2ee1 74bd 2a2c 93bc
00000300: 991f f0bd 68fd f73d b97e 8dbc 6094 3f3d
00000310: e0ef c6bd c195 07be 8755 273d 24c1 b03c
00000320: e080 cf3d 2aef 47bd 9a5b 0cbe d765 d43d
00000330: ba17 0ebc 0ccb 70bc bc53 b8bc 0704 a43c
00000340: e6da a6bd 0c33 0a3e 7770 d43d 3cb5 b93d
00000350: 20ca d1bd a9d1 7d3d 6974 dfbd c3e2 f43d
00000360: 90d4 553d 7dd4 d8bd 9c65 7cbd 5302 8c3d
00000370: 8596 ddbb 9d8a 8e3b da90 1f3d 3164 263b
00000380: 612e 1d3e 6acb 1c3e a873 a1bc 7f01 2abc
00000390: 74bc cb3d da97 88bd 747b a23d da04 9bbd
000003a0: c4a9 a1bd 2493 d1b8 4089 b93c 7dbc 32bd
000003b0: 5159 b7bd c928 e43d 3826 53bd b620 a53d
000003c0: 94bc 8c3d 079e c33d d46f f7bc 672d 71bd
000003d0: 461f 8dbd d7d6 e5bd 623e ebbc 092d 0e3d
000003e0: b920 debd c067 e43d 0c61 2a3d c2b1 8bbd
000003f0: 1b38 0cbd b5b6 e3bb 4bc4 aebd e1e7 d1bd

lstm.weight_hh_l0 f4 [256, 64]
-0.025930187 -0.13660172 0.11898635 -0.0937566 0.04736654 0.07797808 0.065678746 -0.027352735
-0.06047037 0.16891626 0.011753491 -0.111762345 -0.04082312 0.06547242 0.051768985 0.008921792
-0.01833722 -0.11775208 0.04747385 0.10275042 0.053181242 0.011094738 -0.1321012 0.076558806
0.03740233 -0.042534806 0.019010037 -0.115552425 -0.02046313 -0.025946384 -0.0473767 -0.027968166
0.10602462 -0.08682472 0.1016554 0.06330336 -0.058766358 0.120129146 -0.11223312 0.07365343
0.03705313 0.0665481 -0.042551484 -0.026978388 0.089712225 -0.12973073 0.036382172 0.0021631247
0.031546634 -0.0733471 -0.012293355 0.09672227 -0.09927418 -0.12172356 -0.017669028 0.121342696
0.07254476 0.09801843 -0.031346135 0.06750285 -0.07580322 -0.08157796 0.1223928 0.10659771
0.13991126 0.13625175 -0.078410186 -0.022110568 -0.061993763 -0.14809006 -0.081698306 0.0062489156
0.11025274 -0.047378536 -0.13519666 -0.103706315 0.054779865 -0.040591437 -0.024715293 -0.019650938
0.083109625 0.053794257 0.13197461 0.06869055 0.043652315 0.024778126 -0.0124672605 0.0436146
-0.089676924 0.026194299 0.020261327 0.10838442 -0.06161081 0.11122138 0.06933389 -0.047302835
-0.041867144 0.067527264 0.07786663 -0.012665563 -0.07136834 -0.051527407 0.115261264 -0.029822633
0.053929903 0.09967671 0.067243464 -0.14418224 0.15753858 0.12958276 0.112043835 0.11805979
-0.10866126 0.113905616 0.012178163 -0.09331377 -0.08517456 -0.06895332 0.08518495 -0.1004094
-0.08052518 0.059968367 0.14495426 -0.05258237 -0.10491045 -0.054568753 0.030045286 0.025232568
0.0010918812 -0.13263962 0.0024058088 0.021424832 0.096845046 -0.004745967 0.02626948 -0.058495652
0.056886338 -0.08838108 -0.06687386 0.0038226843 -0.107082896 0.031500123 0.07210149 -0.07727706
-0.059013356 -0.14420332 -0.027274197 0.06759464 0.09921225 -0.066291876 -0.014134293 -0.08402279
0.06443609 -0.0489056 0.036757685 -0.09296512 0.0352118 0.059102114 0.081713855 -0.02947087
-0.09095072 0.03796703 -0.0824827 -0.014868286 0.10963163 0.008353841 0.052657552 0.09475699
0.08603596 0.017167939 -0.079617456 0.054436248 0.09176063 -0.1275677 -0.0921457 0.062352754
-0.07870881 -0.007203474 0.08212598 0.042589173 -0.11295918 -0.12155318 0.0010521398 -0.030574717
0.0891398 0.034512546 0.010372908 0.0062306304 -0.11336022 0.068642266 0.10630764 0.12896715
-0.006049468 0.08894684 0.11259692 0.061197836 0.060970116 -0.10166117 -0.07815701 0.08450404
-0.11517545 -0.020953199 -0.10321758 0.0767741 -0.07273631 -0.1164541 -0.0860531 0.11208423
0.014691439 0.10645652 -0.0894865 -0.049538203 -0.11635042 -0.00042409622 -0.08679157 0.015138859
0.038772855 -0.07012075 -0.056592237 0.060967844 0.019787567 -0.012413983 0.04933812 -0.07643774
0.053389516 -0.034456547 0.089113645 -0.036669634 0.0979132 -0.022377513 -0.0426977 -0.012828886
0.08165327 0.0026890794 0.009636313 0.026349412 0.08463913 -0.05178097 0.07373025 -0.029052489
-0.040599626 -0.081449576 0.08410593 -0.08354707 -0.037146416 -0.08283443 0.057602838 0.016615354
-0.063637614 -0.10500105 0.13311286 0.04841408 -0.01238064 0.05638239 0.10773984 -0.09914406
00000000: 8b6b d4bc 52e1 0bbe 1eaf f33d 7603 c0bd
00000010: 6b03 423d f9b2 9f3d 9482 863d d812 e0bc
00000020: c7af 77bd 62f8 2c3e b791 403c a8e3 e4bd
00000030: 2536 27bd 6716 863d b70b 543d b52c 123c
00000040: f037 96bc 0128 f1bd f173 423d d06e d23d
00000050: 93d4 593d b4c6 353c 8945 07be ddca 9c3d
00000060: 3033 193d fa38 2ebd f0ba 9b3c c0a6 ecbd
00000070: 4ba2 a7bc 838d d4bc 120e 42bd 7f1d e5bc
00000080: 7023 d93d 29d1 b1bd b530 d03d 31a5 813d
00000090: feb4 70bd 4506 f63d 7ada e5bd 9cd7 963d
000000a0: 06c5 173d 5f4a 883d 774a 2ebd c801 ddbc
000000b0: 0bbb b73d 22d8 04be 7905 153d 36c3 0d3b
000000c0: 0b37 013d 0137 96bd 116a 49bc 5316 c63d
000000d0: 4350 cbbd 344a f9bd a3be 90bc 8582 f83d
000000e0: 5992 943d e3bd c83d ce64 00bd ef3e 8a3d
000000f0: b83e 9bbd 5812 a7bd 14a9 fa3d e64f da3d
00000100: e644 0f3e 9485 0b3e 8595 a0bd 3921 b5bc
00000110: 2ced 7dbd eca4 17be 7151 a7bd b4c3 cc3b
00000120: 30cc e13d ff0f 42bd fe70 0abe fa63 d4bd
00000130: da60 603d 3543 26bd ba77 cabc 01fb a0bc
00000140: 6135 aa3d 5e57 5c3d 5a24 073e a2ad 8c3d
00000150: c5cc 323d 7ffb ca3c 7b43 4cbc 39a5 323d
00000160: 89a8 b7bd 6d95 d63c 15fb a53c a7f8 dd3d
00000170: 9e5b 7cbd 09c8 e33d edfe 8d3d 9ec0 41bd
00000180: e27c 2bbd bc4b 8a3d 8a78 9f3d 3983 4fbc
00000190: 9029 92bd 670e 53bd 190e ec3d 984e f4bc
000001a0: 9ae5 5c3d 4e23 cc3d f1b6 893d 82a4 13be
000001b0: cb51 213e 58b1 043e 3d77 e53d 55c9 f13d
000001c0: cb89 debd 5947 e93d eb86 473c 4a1b bfbd
000001d0: 0070 aebd 6637 8dbd 7275 ae3d 72a3 cdbd
000001e0: 63ea a4bd 64a1 753d e46e 143e 9c60 57bd
000001f0: 4adb d6bd 7c83 5fbd 8821 f63c 88b4 ce3c
00000200: 741d 8f3a aed2 07be c6aa 1d3b 2183 af3c
00000210: b256 c63d 0f84 9bbb 1833 d73c 2399 6fbd
00000220: a601 693d 2401 b5bd 2af5 88bd 0086 7a3b
00000230: 474e dbbd 4606 013d f2a9 933d 6f43 9ebd
00000240: fdb7 71bd 09aa 13be 236e dfbc 0f6f 8a3d
00000250: cb2f cb3d 09c4 87bd 8693 67bc 2414 acbd
00000260: 12f7 833d 3d51 48bd 3a8f 163d 7f64 bebd
00000270: 403a 103d 0f15 723d 9859 a73d e56c f1bc
00000280: 5f44 babd 5183 1b3d b1ec a8bd 1d9a 73bc
00000290: 8c86 e03d 8cde 083c 72af 573d f40f c23d
000002a0: 9f33 b03d c7a3 8c3c 7a0e a3bd 8bf8 5e3d
000002b0: ffec bb3d 1ba1 02be e2b6 bcbd 9a65 7f3d
000002c0: 1632 a1bd 1f0b ecbb aa31 a83d fc71 2e3d
000002d0: 2457 e7bd e0f0 f8bd f4e7 893a d477 fabc
000002e0: ed8e b63d 075d 0d3d 21f3 293c 512a cc3b
000002f0: 6729 e8bd 5194 8c3d d2b7 d93d f70f 043e
00000300: 9e3a c6bb c329 b63d 3799 e63d 95aa 7a3d
00000310: cdbb 793d bb33 d0bd c810 a0bd 7410 ad3d
00000320: 1be1 ebbd 0ba6 abbc bd63 d3bd bd3b 9d3d
00000330: c6f6 94bd 7d7f eebd 9c3c b0bd 6b8c e53d
00000340: 5db4 703c e005 da3d b344 b7bd 92e8 4abd
00000350: 2149 eebd 3b59 deb9 c7bf b1bd fa08 783c
00000360: 49d0 1e3d 789b 8fbd 43cd 67bd 6bb9 793d
00000370: 8919 a23c 0564 4bbc c516 4a3d 648b 9cbd
00000380: f7ae 5a3d 4f22 0dbd 3781 b63d e632 16bd
00000390: b786 c83d 0c51 b7bc c9e3 2ebd 3f30 52bc
000003a0: d439 a73d 443b 303b a0e1 1d3c b9da d73c
000003b0: 4857 ad3d 4818 54bd e3ff 963d 7cff edbc
000003c0: cb4b 26bd 09cf a6bd bb3f ac3d ba1a abbd
000003d0: d726 18bd 19a5 a9bd f4f0 6b3d ec1c 883c
000003e0: 7054 82bd ca0a d7bd bd4e 083e d84d 463d
000003f0: 2bd8 4abc 39f1 663d b5a6 dc3d 0a0c cbbd

lstm.bias_ih_l0 f4 [256]
-0.005389086 0.052069116 0.046446607 0.015618294 0.08339322 -0.005451413 0.044352375 0.08726561
-0.10414223 0.063697025 0.081028946 0.035509482 0.008582108 -0.10518317 0.08310922 0.07172254
0.077919535 -0.059734598 -0.060662378 0.061100427 0.01446954 0.11924755 -0.0177721 0.043096233
-0.088274196 -0.032830942 0.11459143 0.054614708 -0.02604173 -0.0034979437 -0.07538374 -0.09534604
0.03683255 -0.03736892 -0.105758 -0.023212489 -0.05153054 0.057253007 0.070475735 -0.08351895
0.12513553 0.03183737 -0.03984511 -0.035043996 -0.039653044 -0.015614363 -0.14475286 0.045461837
0.08291587 -0.08757154 0.1109816 -0.021954697 -0.0498776 0.03389243 0.05313533 -0.085799925
-0.014986842 0.029569093 0.12531275 0.051452674 -0.012137372 0.09234072 0.074590504 0.03493811
-0.08941109 0.00019762157 -0.0020017962 -0.021766657 -0.047141597 -0.0035636208 -0.015397141 0.039209116
-0.11514787 -0.10723068 0.06348308 0.065311536 -0.028751591 -0.03973109 -0.0897255 -0.0066331117
0.08824621 -0.060572978 -0.019332115 0.03169747 0.05277809 0.09113462 0.106932014 0.014180376
-0.06700092 -0.05922119 0.12677817 0.03363993 0.056119286 0.03224559 -0.013892729 0.04693434
-0.09726032 -0.06406939 -0.096072055 0.08716858 -0.12270852 -0.07408643 0.058170132 0.03483905
-0.032784138 -0.0905245 -0.087953575 -0.04724239 -0.04230569 0.052513007 -0.11054055 0.07230629
0.043126494 0.034498673 0.014248216 0.038014684 0.012411806 -0.016075708 -0.06884857 -0.041525386
0.06804722 0.008762932 -0.08738319 -0.038056884 -0.03482637 0.004580107 -0.008172076 -0.06321838
-0.05072473 -0.0077093206 0.07641105 0.10849516 -0.012830057 -0.11848918 0.043363255 0.017115958
0.07977988 0.020033931 -0.051501844 0.038921893 -0.13238254 -0.10487 0.03204921 -0.067853905
-0.07260942 0.06106749 -0.06365262 0.041947372 -0.10893371 0.0457488 -0.074844055 -0.06795303
-0.041994225 0.041195396 -0.0070416294 0.0089151 -0.04575484 -0.071089946 -0.09673713 -0.022754418
-0.13192931 0.08543455 -0.013634456 0.060722373 0.06658696 0.011583165 -0.06300838 0.09071726
0.05078534 -0.11897335 0.030748075 0.088292785 -0.10300188 0.083097346 0.08463619 0.11640869
0.0050607165 0.13330005 -0.0496616 0.12522982 0.0732624 -0.054979134 0.08435596 0.041972008
-0.0120167965 -0.08268766 -0.07594034 -0.03933645 0.11474016 0.05896896 0.11289245 0.024007939
0.06830806 -0.058585797 0.061232384 -0.12195992 -0.012456679 0.12884991 0.091858454 -0.10039252
-0.07528485 0.118196934 0.08183239 -0.124388136 0.049705647 0.029803162 -0.00959864 -0.11296031
0.08084616 0.018183708 -0.024005702 0.13809563 -0.069920465 0.119697206 0.022068782 0.090971634
0.035604976 -0.10968576 0.034414195 0.048536967 -0.1015223 0.024788115 -0.0077429754 -0.09439794
-0.07586707 0.012425592 0.07229258 -0.015855413 -0.07229104 0.063206226 0.09197397 -0.07792678
0.11571797 0.12051347 0.14376591 -0.07421671 0.0042927037 0.11131415 0.009489108 0.067211874
-0.022739291 0.09597796 -0.07343786 -0.06405936 -0.12879807 0.03924953 -0.030426938 0.037580356
0.013090924 0.039085053 0.049356848 0.056675166 -0.09603383 -0.020193031 -0.06320389 0.041693676
00000000: ee96 b0bb 6d46 553d cc3e 3e3d dfe3 7f3c
00000010: 11ca aa3d c4a1 b2bb d6aa 353d 50b8 b23d
00000020: 8548 d5bd 9673 823d 81f2 a53d 6472 113d
00000030: f89b 0c3c 466a d7bd 2b35 aa3d 44e3 923d
00000040: 4794 9f3d 44ac 74bd 1d79 78bd 7144 7a3d
00000050: a611 6d3c 0f38 f43d cc96 91bc ad85 303d
00000060: 1ac9 b4bd bd79 06bd e9ae ea3d acb3 5f3d
00000070: 7755 d5bc c23d 65bb ca62 9abd c944 c3bd
00000080: badd 163d 2710 19bd a697 d8bd 1e28 bebc
00000090: b011 53bd 2182 6a3d 9555 903d fc0b abbd
000000a0: 8723 003e e767 023d a034 23bd 4b8a 0fbd
000000b0: 3b6b 22bd 63d3 7fbc 183a 14be 3136 3a3d
000000c0: cccf a93d b558 b3bd 524a e33d 56da b3bc
000000d0: 744c 4cbd cad2 0a3d 6fa4 593d dfb7 afbd
000000e0: 5f8b 75bc e23a f23c fc51 003e 0ac0 523d
000000f0: d4db 46bc 221d bd3d e8c2 983d 431b 0f3d
00000100: 291d b7bd a338 4f39 9130 03bb fd4f b2bc
00000110: 8c17 41bd a38b 69bb 4a44 7cbc bd99 203d
00000120: a5d2 ebbd c29b dbbd 6b03 823d 0ec2 853d
00000130: 7588 ebbc 11bd 22bd 01c2 b7bd 935a d9bb
00000140: 6eba b43d 5f1b 78bd 625e 9ebc 35d5 013d
00000150: d72d 583d caa4 ba3d 2cff da3d cf54 683c
00000160: c737 89bd eb91 72bd 23d2 013e 06ca 093d
00000170: 56dd 653d f413 043d 549e 63bc 393e 403d
00000180: 6b30 c7bd d036 83bd 6dc1 c4bd 7185 b23d
00000190: 9b4e fbbd a0ba 97bd ce43 6e3d 64b3 0e3d
000001a0: a948 06bd e964 b9bd 0121 b4bd 3d81 41bd
000001b0: bb48 2dbd e117 573d 1563 e2bd 5215 943d
000001c0: 68a5 303d 7b4e 0d3d 5971 693c 49b5 1b3d
000001d0: e35a 4b3c 34b1 83bc 7b00 8dbd 8616 2abd
000001e0: 575c 8b3d 6792 0f3c f5f5 b2bd 89e1 1bbd
000001f0: 19a6 0ebd b914 963b 2ce4 05bc a378 81bd
00000200: bcc4 4fbd 789e fcbb 667d 9c3d b632 de3d
00000210: 2935 52bc 75aa f2bd ab9d 313d c436 8c3c
00000220: a263 a33d 331e a43c 99f3 52bd 906c 1f3d
00000230: 4a8f 07be 15c6 d6bd 0846 033d fdf6 8abd
00000240: 3fb4 94bd e821 7a3d 4e5c 82bd 02d1 2b3d
00000250: a318 dfbd 1863 3b3d d747 99bd f52a 8bbd
00000260: 2302 2cbd 81bc 283d 78bd e6bb a410 123c
00000270: 6d69 3bbd 9b97 91bd 1e1e c6bd 7967 babc
00000280: 7a18 07be 4ff8 ae3d 0e63 5fbc 06b8 783d
00000290: be5e 883d 51c7 3d3c 8a0a 81bd f9c9 b93d
000002a0: 4a04 503d 4da8 f3bd 63e3 fb3c d9d2 b43d
000002b0: a6f2 d2bd f12e aa3d bd55 ad3d ae67 ee3d
000002c0: 5ed4 a53b cf7f 083e f669 4bbd 3f3c 003e
000002d0: 990a 963d cd31 61bd d1c2 ac3d d7ea 2b3d
000002e0: 19e2 44bc 2658 a9bd 9c86 9bbd 421f 21bd
000002f0: e4fc ea3d 7089 713d 2834 e73d 4cac c43c
00000300: 19e5 8b3d a9f7 6fbd cfce 7a3d 1fc6 f9bd
00000310: 1917 4cbc 3bf1 033e 4920 bc3d 989a cdbd
00000320: f22e 9abd 3c11 f23d bd97 a73d 35bf febd
00000330: 2698 4b3d c325 f43c 9d43 1dbc bc57 e7bd
00000340: ac92 a53d 00f6 943c 9ba7 c4bc f168 0d3e
00000350: 7632 8fbd cf23 f53d 97c9 b43c 564f ba3d
00000360: 86d6 113d eea2 e0bd e6f5 0c3d b3ce 463d
00000370: ecea cfbd 7210 cb3c c9b8 fdbb b553 c1bd
00000380: 3260 9bbd b694 4b3c 220e 943d 36e3 81bc
00000390: 530d 94bd 4472 813d d95c bc3d 1398 9fbd
000003a0: 8bfd ec3d c4cf f63d 5f37 133e eefe 97bd
000003b0: cfa9 8c3b acf8 e33d 3478 1b3c 61a6 893d
000003c0: c047 babc 1890 c43d 9766 96bd 8e31 83bd
000003d0: a4e3 03be 1dc4 203d ea41 f9bc dced 193d
000003e0: 517b 563c a617 203d 682a 4a3d 3824 683d
000003f0: 62ad c4bd db6b a5bc 0b71 81bd fdc6 2a3d

lstm.bias_hh_l0 f4 [256]
-0.04668954 0.07865487 -0.08725689 0.08744611 -0.057331607 0.03494445 0.035193514 0.12931828
-0.07789115 -0.10971403 0.031089095 -0.021550993 0.058877405 0.025967525 -0.01595159 -0.031713832
0.026012989 -0.01145228 0.0050142775 -0.012998081 0.08744993 0.08426812 -0.11469489 -0.07676825
0.0827398 0.07777507 0.10040332 -0.082840934 -0.09588484 0.04589668 -0.012126989 -0.109498926
-0.026264532 -0.03239134 0.034625318 0.0070669926 0.056099653 0.017942965 0.056753542 -0.0916664
-0.039004266 0.03817372 0.12580322 0.0613948 0.006523831 0.04102374 -0.09075102 -0.04155649
-0.043547664 -0.06934463 -0.028904514 -0.03968124 -0.11383725 -0.057118244 -0.024145637 0.007116096
0.05745801 0.025150662 0.0031536904 -0.09017268 0.017243104 0.02320347 0.09291768 -0.06698632
-0.05395944 -0.10775983 -0.08097885 0.1009328 0.121612266 0.0769966 0.029027997 -0.07933389
-0.08207906 0.0018430494 -0.07322221 -0.08141328 -0.067221224 -0.07909628 -0.0042487006 0.107043296
0.06301166 0.015646946 0.09726205 0.15856114 -0.08012599 0.12712908 0.007119325 0.059913088
0.026910499 -0.005991698 0.07932998 -0.052325483 -0.01876272 -0.017199295 -0.0035049703 -0.017076338
0.017262494 -0.0071057105 0.011779929 0.076361336 -0.052190952 -0.09448826 0.04068511 0.067930676
0.039347645 -0.036360946 0.08045233 -0.082699805 -0.0045853257 -0.043879654 -0.06279716 0.027710587
-0.021233147 0.16014364 0.102314785 0.043987658 -0.06754386 0.011479756 -0.11065363 -0.023111075
-0.018680824 0.081934705 0.10516127 -0.11528388 0.0048540602 0.032703787 -0.0018414358 0.07545218
-0.030514218 0.06597589 0.08120081 0.07638501 0.10199094 0.10987089 -0.08400656 0.12084771
-0.06523892 -0.0218694 0.036640804 -0.051835343 0.023727972 0.058116682 -0.042027023 -0.08369873
-0.0577845 -0.01014554 0.07253595 -0.048898585 -0.053110387 -0.012762742 0.0824522 -0.031317294
0.11023417 0.04172999 -0.0014436069 -0.09310322 0.12050591 0.13167278 0.0112288995 0.03174025
-0.12850058 -0.10347886 -0.0560491 0.046698764 -0.06691934 -0.0076930984 -0.064376995 -0.10907569
0.0042701676 0.06870995 0.006566157 0.07279945 -0.09609988 -0.019772772 0.06810924 0.100608185
0.111794434 0.045133103 0.11425191 -0.03733421 -0.052234117 0.005367811 -0.12288948 0.04171836
0.03254389 -0.09932865 -0.08706097 0.052440397 -0.061197624 -0.042381883 0.038753986 0.010490418
-0.094797246 -0.06561504 -0.07513028 0.032756668 0.0008128793 0.0568406 0.058794588 -0.10138947
0.061535656 0.054708295 -0.07472869 0.097082675 -0.0066922926 0.063799135 0.015636299 0.068239175
-0.061760128 0.115586154 0.11310746 0.05105554 -0.06507266 -0.09308282 0.0756914 0.044142183
0.08000253 0.025303598 -0.1003345 -0.11509667 -0.01878424 0.0077466653 0.11664359 0.027043482
-0.11330871 -0.06281617 0.058771007 -0.047596008 0.02339056 -0.07002945 -0.09849232 -0.048543584
0.08791471 0.112892926 0.05060008 0.02223226 -0.047514 0.10292256 0.029840512 0.010715048
0.08566115 0.04453408 -0.041192517 0.047498293 -0.08955178 0.036425207 0.07152479 -0.090321384
0.00029268934 -0.033984847 0.061028883 0.07135105 -0.06978026 0.081664495 -0.0003716394 0.10096214
00000000: 883d 3fbd ce15 a13d beb3 b2bd f216 b33d
00000010: 8cd4 6abd e921 0f3d 1327 103d 036c 043e
00000020: 6585 9fbd c0b1 e0bd 8fae fe3c b58b b0bc
00000030: 6f29 713d d9b9 d43c e9ac 82bc 5de6 01bd
00000040: 3119 d53c 58a2 3bbc cf4e a43b e7f5 54bc
00000050: f318 b33d c494 ac3d 28e5 eabd ac38 9dbd
00000060: 7c73 a93d 8948 9f3d 41a0 cd3d 82a8 a9bd
00000070: 455f c4bd 28fe 3b3d 47b0 46bc f940 e0bd
00000080: b728 d7bc c8ac 04bd 47d3 0d3d 3b92 e73b
00000090: c0c8 653d 20fd 923c 6776 683d 98bb bbbd
000000a0: f0c2 1fbd 0c5c 1c3d 8fd2 003e 1d79 7b3d
000000b0: dcc5 d53b 8208 283d acdb b9bd 2337 2abd
000000c0: 095f 32bd 8f04 8ebd 29c9 ecbc cc88 22bd
000000d0: 8123 e9bd d2f4 69bd 12cd c5bc 242e e93b
000000e0: 1759 6b3d c308 ce3c 25ae 4e3b 74ac b8bd
000000f0: 6941 8d3c 3415 be3c a04b be3d 2030 89bd
00000100: 9304 5dbd 30b1 dcbd 3dd8 a5bd dbb5 ce3d
00000110: da0f f93d 65b0 9d3d 1fcc ed3c ce79 a2bd
00000120: 1119 a8bd 7a92 f13a 87f5 95bd 01bc a6bd
00000130: 48ab 89bd 3bfd a1bd af38 8bbb 8439 db3d
00000140: 420c 813d 062e 803c 5331 c73d da5d 223e
00000150: 1819 a4bd 202e 023e 3a49 e93b 6d67 753d
00000160: 6873 dc3c 0156 c4bb c277 a23d 3f53 56bd
00000170: 47b4 99bc 89e5 8cbc a5b3 65bb ade3 8bbc
00000180: 136a 8d3c 05d7 e8bb 9a00 413c 5563 9c3d
00000190: 2ec6 55bd 1083 c1bd 6ea5 263d 3d1f 8b3d
000001a0: ff2a 213d 37ef 14bd 31c4 a43d 845e a9bd
000001b0: 8040 96bb 27bb 33bd cc9b 80bd 5001 e33c
000001c0: 23f1 adbc b2fc 233e 6a8a d13d 672c 343d
000001d0: 6f54 8abd 9615 3c3c 5f9e e2bd 7053 bdbc
000001e0: 8708 99bc 62cd a73d cb5e d73d f419 ecbd
000001f0: cf0e 9f3b 68f4 053d 555c f1ba ac86 9a3d
00000200: f4f8 f9bc 5e1e 873d 9c4c a63d be6f 9c3d
00000210: a0e0 d03d fd03 e13d a20b acbd 017f f73d
00000220: fc9b 85bd 7527 b3bc ab14 163d 4c51 54bd
00000230: 2a61 c23c c20b 6e3d 8724 2cbd 3d6a abbd
00000240: 71af 6cbd 7b39 26bc ba8d 943d e249 48bd
00000250: 478a 59bd d21a 51bc b3dc a83d 9046 00bd
00000260: 74c2 e13d 11ed 2a3d 6937 bdba e7ac bebd
00000270: cdcb f63d 3bd5 063e 6bf9 373c 1002 023d
00000280: a895 03be b9ec d3bd be93 65bd 3447 3f3d
00000290: 020d 89bd 6316 fcbb 16d8 83bd 1363 dfbd
000002a0: c3ec 8b3b cdb7 8c3d eb28 d73b e117 953d
000002b0: 04d0 c4bd 82fa a1bc db7c 8b3d aa0b ce3d
000002c0: 7bf4 e43d 7ddd 383d e8fc e93d c2eb 18bd
000002d0: 71f3 55bd 76e4 af3b 7bad fbbd dfe0 2a3d
000002e0: be4c 053d d26c cbbd 064d b2bd becb 563d
000002f0: 5caa 7abd a098 2dbd 80bc 1e3d 01e0 2b3c
00000300: 0f25 c2bd 2e61 86bd e7dd 99bd db2b 063d
00000310: 6817 553a b0d1 683d 98d2 703d 48a5 cfbd
00000320: d00c 7c3d ce15 603d 5b0b 99bd 48d3 c63d
00000330: 054b dbbb 1fa9 823d b217 803c fbc0 8b3d
00000340: 30f8 7cbd 6fb8 ec3d e2a4 e73d 9d1f 513d
00000350: d144 85bd 35a2 bebd 1804 9b3d 6fce 343d
00000360: 5ed8 a33d 7e49 cf3c 2d7c cdbd ceb7 ebbd
00000370: 68e1 99bc bdd7 fd3b d6e2 ee3d 4b8a dd3c
00000380: 660e e8bd c4a5 80bd deb9 703d 08f4 42bd
00000390: 8f9d bf3c 9a6b 8fbd 57b6 c9bd a3d5 46bd
000003a0: a10c b43d 6834 e73d 0842 4f3d 6e20 b63c
000003b0: 0a9e 42bd 10c9 d23d 1774 f43c 2b8e 2f3c
000003c0: 1d6f af3d 5e69 363d 7cb9 28bd 928d 423d
000003d0: ec66 b7bd 9932 153d 977b 923d 6bfa b8bd
000003e0: 1974 9939 b233 0bbd 6cf9 793d 8020 923d
000003f0: f4e8 8ebd b73f a73d 99d8 c2b9 3dc5 ce3d

lstm.weight_ih_l1 f4 [256, 64]
0.013909939 -0.11894193 0.05046466 -0.08220507 -0.13522874 -0.046853106 0.08086775 0.07159652
0.10555625 0.07091549 -0.05526877 0.072930686 -0.10721524 -0.003350181 0.06400104 -0.0005697421
-0.07277249 -0.093716376 -0.10352546 -0.08452294 0.0021620041 0.10862139 0.022478819 -0.08990404
0.043872073 -0.08202464 -0.055953942 -0.052247662 -0.07637864 0.07975912 -0.08693619 0.14065382
0.017852696 0.025413835 0.05949451 0.07084921 0.0912501 -0.116620496 0.0908912 -0.08998948
0.110274464 0.12124147 0.097568944 0.030189417 0.036538612 -0.0944219 -0.102821946 -0.0023978862
0.024571786 -0.0044440646 -0.018908588 0.008782943 0.00775047 0.06296502 -0.035761707 -0.09726212
-0.042332217 -0.10287046 -0.037689604 0.0535763 -0.046195652 -0.05959121 0.05274945 0.03196293
-0.13475372 -0.06656964 0.03330359 -0.008068756 -0.011699676 -0.10991817 -0.014333638 0.1433666
-0.089800306 -0.08405439 -0.03656106 0.10206634 0.07407621 0.025043437 -0.051392462 -0.04562262
0.03426037 -0.105791055 -0.031206865 0.07056875 -0.07621502 0.06389217 0.021307306 0.050509997
-0.0092987595 -0.0009733927 -0.06610409 -0.023659216 0.031192489 0.03932173 -0.11054221 0.105848625
0.041378908 0.076957375 -0.12119265 0.084092654 -0.08429995 -0.043457616 -0.1374742 -0.020924946
0.045841724 -0.03416727 -0.07928691 -0.085724115 -0.039523963 -0.05108437 -0.09024833 0.030406848
0.015783638 0.095581315 0.060522005 -0.0249211 -0.016723225 0.0014461525 0.08460216 -0.027167145
-0.026102196 0.007639468 -0.09319888 0.015006134 0.07060439 0.07780288 0.0908775 -0.09507638
-0.047972098 0.014564597 0.11618177 0.07217161 0.04178531 0.079155825 -0.059071373 -0.0006043127
-0.020579707 -0.057751942 -0.085610375 -0.075973 0.112595744 -0.056274418 -0.07049214 0.10418859
0.097941026 -0.062209487 -0.06624752 -0.024607277 -0.0077530514 -0.024633352 0.03691241 -0.06313489
0.07526045 -0.08222152 -0.004448312 0.048319902 -0.049097583 0.08108173 0.03174734 0.10130955
0.05150969 0.024697436 0.0911881 0.06887085 -0.07830946 -0.059102185 -0.11138861 -0.0043952954
0.09207325 0.008528104 0.033081036 0.04808562 -0.08389824 -0.080440566 -0.040693976 -0.12136586
-0.00877281 -0.042462166 0.12500456 -0.09819438 -0.011809716 -0.012931703 -0.007592614 -0.07321204
-0.11093123 0.06106924 -0.02674108 0.111059345 -0.0009660366 -0.014221126 -0.067221664 0.11401215
0.04560919 0.019213365 0.10829673 -0.10515959 0.06262022 0.08076524 0.0054994477 0.045348354
-0.14272669 0.078357674 0.0519472 0.08144845 0.0139194345 0.05132095 -0.0742293 0.06294457
-0.13650995 0.0086533865 -0.06097222 -0.0889607 -0.13022411 -0.08556546 0.13408308 0.05758643
-0.011812656 -0.06206257 -0.08330636 -0.10754762 -0.052788608 0.121660456 -0.104140565 -0.028576972
0.08690459 -0.02205768 0.045056902 0.05290004 -0.07836662 -0.009254813 -0.06612226 -0.02944525
0.058035888 -0.06739465 -0.018479044 -0.0021957054 -0.12857524 -0.075618796 -0.09224077 -0.09020836
-0.058235247 0.067118295 -0.007315647 -0.014310411 0.020694582 0.021165883 0.069494165 -0.04183061
-0.06113134 0.05838417 -0.0043843747 0.003060476 -0.11080377 0.11548549 0.11324512 -0.03779226
00000000: 83e6 633c d497 f3bd 08b4 4e3d 225b a8bd
00000010: 6779 0abe 0be9 3fbd fe9d a53d 32a1 923d
00000020: e02d d83d 243c 913d 8161 62bd af5c 953d
00000030: aa93 dbbd b68e 5bbb fa12 833d bf5a 15ba
00000040: be09 95bd 5fee bfbd 2805 d4bd 5d1a adbd
00000050: 69b0 0d3b e474 de3d 8025 b83c 9c1f b8bd
00000060: 34b3 333d 89fc a7bd f62f 65bd a501 56bd
00000070: 686c 9cbd c058 a33d 9a0b b2bd 8e07 103e
00000080: d13f 923c ad30 d03c 84b0 733d 6419 913d
00000090: 55e1 ba3d bad6 eebd 2a25 ba3d 684c b8bd
000000a0: 94d7 e13d 734d f83d 3ad2 c73d cc4f f73c
000000b0: 83a9 153d 4560 c1bd 5094 d2bd db25 1dbb
000000c0: c54a c93c 849f 91bb 2fe6 9abc 55e6 0f3c
000000d0: a8f7 fd3b cef3 803d de7a 12bd 5d31 c7bd
000000e0: 8c64 2dbd bfad d2bd 6a60 1abd d372 5b3d
000000f0: a737 3dbd ea15 74bd cf0f 583d 90eb 023d
00000100: e1fc 09be aa55 88bd 5869 083d d132 04bc
00000110: ffaf 3fbc c71c e1bd a3d7 6abc b2ce 123e
00000120: 39e9 b7bd b524 acbd 0dc1 15bd 2808 d13d
00000130: 45b5 973d e527 cd3c e780 52bd c9de 3abd
00000140: 9a54 0c3d fba8 d8bd 8aa5 ffbc 5986 903d
00000150: 9f16 9cbd e6d9 823d a98c ae3c 92e3 4e3d
00000160: d359 18bc 472b 7fba 9561 87bd f9d0 c1bc
00000170: 6487 ff3c d30f 213d f463 e2bd 2ac7 d83d
00000180: ee7c 293d d49b 9d3d da33 f8bd c538 ac3d
00000190: 74a5 acbd 9d00 32bd 09c6 0cbe cb6a abbc
000001a0: 88c4 3b3d fbf2 0bbd 2d61 a2bd 2090 afbd
000001b0: e1e3 21bd d83d 51bd 1ed4 b8bd c817 f93c
000001c0: b04c 813c 23c0 c33d ece5 773d 5627 ccbc
000001d0: 25ff 88bc d38c bd3a e643 ad3d a28d debc
000001e0: 46d4 d5bc 8154 fa3b 0edf bebd 4adc 753c
000001f0: 0999 903d 1e57 9f3d fc1d ba3d 68b7 c2bd
00000200: 647e 44bd 59a0 6e3c b5f0 ed3d b6ce 933d
00000210: 1327 2b3d 731c a23d d3f4 71bd bd6a 1eba
00000220: c696 a8bc 4d8d 6cbd 7e54 afbd bb97 9bbd
00000230: 9998 e63d 0180 66bd 2f5e 90bd d460 d53d
00000240: 4e95 c83d 60cf 7ebd c8ac 87bd 3395 c9bc
00000250: 4f0d febb e2cb c9bc 7831 173d dd4c 81bd
00000260: 2722 9a3d c263 a8bd 25c3 91bb 17eb 453d
00000270: 8c1a 49bd 2e0e a63d 8009 023d 627b cf3d
00000280: d3fb 523d 4752 ca3c d4c0 ba3d 290c 8d3d
00000290: b660 a0bd 2215 72bd b61f e4bd 6906 90bb
000002a0: e690 bc3d 76b9 0b3c fb7f 073d 6df5 443d
000002b0: d7d2 abbd 06be a4bd baae 26bd aa8e f8bd
000002c0: d5bb 0fbc cfec 2dbd 3201 003e 231a c9bd
000002d0: 8a7d 41bc 7edf 53bc 76cb f8bb 32f0 95bd
000002e0: ea2f e3bd bd23 7a3d 1c10 dbbc 1573 e33d
000002f0: 9e3d 7dba baff 68bc 83ab 89bd 347f e93d
00000300: b4d0 3a3d 5965 9d3c adca dd3d e95d d7bd
00000310: 083f 803d 3f68 a53d b634 b43b 32bf 393d
00000320: f226 12be fd79 a03d 96c6 543d 72ce a63d
00000330: 570e 643c eb35 523d 8805 98bd 15e9 803d
00000340: 44c9 0bbe efc6 0d3c 02be 79bd 0731 b6bd
00000350: 7859 05be f23c afbd 134d 093e c0df 6b3d
00000360: df89 41bc 5235 7ebd 869c aabd ed41 dcbd
00000370: de38 58bd 1e29 f93d a647 d5bd 411a eabc
00000380: 09fb b13d 4fb2 b4bc 968d 383d b6ad 583d
00000390: ae7e a0bd 80a1 17bc 1c6b 87bd 2a37 f1bc
000003a0: 0ab7 6d3d 3506 8abd 5d61 97bc d3e5 0fbb
000003b0: 3aa9 03be 07de 9abd bbe8 bcbd 29bf b8bd
000003c0: 1588 6ebd 5175 893d 18b8 efbb 3776 6abc
000003d0: af87 a93c 1364 ad3c f552 8e3d 9356 2bbd
000003e0: db64 7abd 3d24 6f3d cdaa 8fbb 4492 483b
000003f0: 16ed e2bd a883 ec3d 0fed e73d 0fcc 1abd

lstm.weight_hh_l1 f4 [256, 64]
-0.13497399 0.09459503 -0.020118251 -0.07555691 0.043331306 0.092523396 -0.12069284 0.11331595
0.017680146 0.076880194 -0.06117669 0.059381574 0.09282558 0.08484053 0.04210525 0.1254645
-0.020272277 0.062411714 0.11043698 -0.089901425 -0.093424685 0.0059756474 0.06137645 -0.05563312
0.04619055 -0.1154051 0.103421874 0.017881073 0.07694864 -0.123466186 -0.08879276 -0.083433546
-0.07174945 0.08521343 -0.0323821 -0.124861926 0.101622626 0.007882798 0.105398126 -0.0048693386
-0.11453072 -0.10973179 -0.0398374 0.07988057 -0.094925 0.09083811 0.09098618 -0.0014320074
0.01885095 -0.01173713 0.17490542 0.07341939 0.037742265 0.07620419 0.07327112 -0.13009034
-0.072680645 0.023525937 0.06530122 -0.0014320002 0.11334387 0.041351035 -0.07474903 0.07749196
-0.012031741 0.0041165734 0.07523398 -0.04573033 -0.02678705 0.0696926 0.10169294 0.07085997
0.11740966 0.109256856 -0.04883144 0.017949063 0.06876659 0.036001753 0.10832099 0.050025385
0.02136297 0.07057118 -0.042404052 0.026572907 0.01767135 -0.07536682 -0.036113728 0.04155304
-0.07209184 0.043733474 -0.07497709 -0.029962717 -0.002132732 0.004890043 -0.055729344 0.055344805
-0.032780018 0.011094583 0.07808489 -0.06335786 -0.08044813 0.08505233 -0.006742114 0.0920717
-0.10577216 -0.023714257 -0.03151969 -0.11426294 0.11998539 0.14555863 -0.055426165 0.10035442
0.104595035 -0.05650462 -0.05130848 0.13255823 -0.0766162 -0.01673659 -0.03433299 0.0130561115
-0.075181596 -0.0390025 -0.11251193 0.042806864 0.024292337 -0.023553452 -0.016164765 -0.016848467
0.04270079 0.07725944 0.102645315 0.02051575 -0.08810331 -0.024272239 0.042894814 -0.026782213
0.02719012 -0.07821447 0.07426031 -0.040475626 0.0041399435 0.054132666 -0.060107414 -0.09759242
0.036011714 0.07670734 -0.0031196566 0.004281162 -0.059454747 -0.007631996 -0.0055848435 -0.05796637
-0.09696986 -0.034580946 0.038003273 0.1103808 0.0062960293 -0.11248306 -0.010247522 -0.039274506
0.10856372 0.05588868 -0.054850493 -0.07754034 -0.053252004 0.09226219 -0.10386539 -0.10281676
-0.09659575 0.08573385 -0.065987825 0.047896117 0.07915861 -0.03906358 -0.12146677 -0.039978746
-0.061160803 -0.007999903 0.07750533 0.08801043 0.007932135 -0.05768125 -0.054286625 -0.028339349
-0.09138359 -0.07390583 0.068654045 0.09576157 -0.07312114 0.09177099 0.050477456 -0.055770572
-0.0025853745 0.07348548 0.08902432 0.12307514 -0.110015094 0.031874876 -0.008616898 0.12684879
0.03072223 0.11939242 0.11115967 0.08682283 -0.12593606 0.06582793 -0.070635125 0.1629452
0.0012954788 -0.051546294 -0.014439263 -0.08410203 0.11198075 0.008306712 -0.10633554 -0.09303568
0.046408556 0.13008165 0.0783062 0.09273085 -0.024088578 -0.009454827 -0.07326318 0.09497231
0.054995377 -0.074527614 0.10759693 0.036520824 -0.011398208 0.12965682 0.03221734 0.031597704
-0.11151215 -0.0071935644 0.019577907 -0.11456396 -0.12909059 -0.09763404 0.031262696 -0.10294452
0.024658035 -0.029522369 -0.033076864 -0.08197993 -0.12849306 0.11552353 -0.067790225 -0.03131435
-0.08063514 0.15183687 -0.12875676 0.033976868 -0.12409436 0.13204163 0.037178963 0.03529979
00000000: 9f36 0abe 0abb c13d 08cf a4bc 95bd 9abd
00000010: 2b7c 313d e87c bd3d cf2d f7bd 3112 e83d
00000020: f4d5 903c 5d73 9d3d 6994 7abd 183a 733d
00000030: 561b be3d dfc0 ad3d 8e76 2c3d c479 003e
00000040: 0c12 a6bc 6da3 7f3d c92c e23d 3d1e b8bd
00000050: 7155 bfbd 5dcf c33b df65 7b3d 8edf 63bd
00000060: 4d32 3d3d 8259 ecbd d9ce d33d 547b 923c
00000070: 4097 9d3d d7db fcbd fbd8 b5bd 35df aabd
00000080: 60f1 92bd 6184 ae3d 18a3 04bd 9cb7 ffbd
00000090: 861f d03d da26 013c f9da d73d f98e 9fbb
000000a0: 158f eabd 10bb e0bd 8b2c 23bd 6d98 a33d
000000b0: 0a68 c2bd 5509 ba3d f656 ba3d 32b2 bbba
000000c0: 4f6d 9a3c 174d 40bc 681a 333e e85c 963d
000000d0: a297 1a3d f110 9c3d 2b0f 963d 6736 05be
000000e0: 97d9 94bd 77b9 c03c a5bc 853d f4b1 bbba
000000f0: d520 e83d b45f 293d 0516 99bd 1bb4 9e3d
00000100: c820 45bc 52e4 863b 4614 9a3d ba4f 3bbd
00000110: 8470 dbbc feba 8e3d 6344 d03d 081f 913d
00000120: 7a74 f03d 0fc2 df3d 7a03 48bd ea09 933c
00000130: 7fd5 8c3d 9376 133d 65d7 dd3d 6be7 4c3d
00000140: 6501 af3c 9f87 903d dfaf 2dbd 6daf d93c
00000150: 82c3 903c eb59 9abd fdeb 13bd 8533 2a3d
00000160: e3a4 93bd df21 333d 978d 99bd 5f74 f5bc
00000170: 4ec5 0bbb a73c a03b 7444 64bd 3cb1 623d
00000180: 5744 06bd 0ec6 353c f9ea 9f3d c4c1 81bd
00000190: fdc1 a4bd ea2f ae3d f4ec dcbb 1690 bc3d
000001a0: 139f d8bd 6744 c2bc ca1a 01bd b002 eabd
000001b0: e6ba f53d 520d 153e 8c06 63bd 9e86 cd3d
000001c0: ec35 d63d 6371 67bd d728 52bd 58bd 073e
000001d0: f4e8 9cbd 2c1b 89bc c0a0 0cbd 4de9 553c
000001e0: cff8 99bd 16c1 1fbd a86c e6bd 4056 2f3d
000001f0: b900 c73c 2bf3 c0bc f86b 84bc cc05 8abc
00000200: 06e7 2e3d 333a 9e3d b537 d23d a510 a83c
00000210: 826f b4bd 93d6 c6bc 79b2 2f3d 5f66 dbbc
00000220: d1bd de3c e82e a0bd ca15 983d c5c9 25bd
00000230: 5da8 873b 37ba 5d3d 3133 76bd 89de c7bd
00000240: 0581 133d bd18 9d3d 2773 4cbb fd48 8c3b
00000250: d286 73bd d315 fabb 1001 b7bb 256e 6dbd
00000260: 2298 c6bd c0a4 0dbd 52a9 1b3d 540f e23d
00000270: ec4e ce3b 855d e6bd 39e5 27bc 4ede 20bd
00000280: a856 de3d 87eb 643d e9aa 60bd 78cd 9ebd
00000290: c61e 5abd f6f3 bc3d 61b7 d4bd 9891 d2bd
000002a0: fed3 c5bd 3b95 af3d a024 87bd b82e 443d
000002b0: e91d a23d 2201 20bd 92c3 f8bd c1c0 23bd
000002c0: c083 7abd 0612 03bc 1dbb 9e3d d03e b43d
000002d0: c9f5 013c 2d43 6cbd a75b 5ebd ec27 e8bc
000002e0: 5227 bbbd f15b 97bd 7e9a 8c3d a41e c43d
000002f0: 89c0 95bd 6ef2 bb3d 73c1 4e3d af6f 64bd
00000300: 636f 29bb 8e7f 963d 6252 b63d d20e fc3d
00000310: 984f e1bd 3b8f 023d e42d 0dbc a6e4 013e
00000320: 30ad fb3c 0384 f43d aea7 e33d 2bd0 b13d
00000330: 62f5 00be cbd0 863d 26a9 90bd 1bdb 263e
00000340: 0ecd a93a 3522 53bd a992 6cbc af3d acbd
00000350: 2a56 e53d e018 083c 73c6 d9bd 7e89 bebd
00000360: e616 3e3d 2034 053e 005f a03d ace9 bd3d
00000370: 6955 c5bc 6be8 1abc 020b 96bd d880 c23d
00000380: d542 613d efa1 98bd c75b dc3d dc96 153d
00000390: 8dbf 3abc c2c4 043e 54f6 033d 986c 013d
000003a0: 7b60 e4bd feb7 ebbb d961 a03c 82a0 eabd
000003b0: 5330 04be 5bf4 c7bd 500d 003d 94d4 d2bd
000003c0: a6ff c93c e5d8 f1bc 9b7b 07bd 18e5 a7bd
000003d0: af93 03be 9a97 ec3d 9ad5 8abd 7a43 00bd
000003e0: 0924 a5bd 207b 1b3e d0d8 03be 542b 0b3d
000003f0: 2f25 febd ec35 073e f848 183d 8396 103d

lstm.bias_ih_l1 f4 [256]
-0.098801725 -0.043350156 -0.06806048 0.0073076105 0.050933935 -0.012073181 -0.078077964 0.0389954
-0.0628714 0.08357797 0.051449835 -0.03385827 0.00515807 0.049445108 -0.05725748 0.040521614
0.042746644 -0.072833 0.06521114 0.06781902 -0.05991284 0.0068409024 0.0659409 0.020520166
0.0763589 0.0350609 -0.0967381 -0.0041379803 0.082570866 -0.11617654 0.043783728 0.06571254
-0.044258762 0.0790904 0.08683655 0.08130636 0.085124135 0.068867564 0.039668538 0.03354339
-0.016092414 -0.08191539 -0.0785935 -0.023692153 -0.12792264 -0.028613739 -0.06390629 -0.07341387
-0.08625333 -0.009025159 0.035586096 -0.08288047 0.032942086 0.06904792 -0.096444935 0.037997585
0.080297776 0.01735341 0.10923846 -0.09491807 0.08573866 0.0803003 0.09520749 -0.05804404
0.06182872 0.06991272 0.11733284 0.064107835 -0.016584055 0.10450037 -0.07959706 -0.05585862
0.1003497 0.019515602 -0.07166898 0.017628273 0.0011944346 0.001243249 -0.01852085 0.047541283
-0.03079172 -0.04331549 0.08751772 0.061330136 0.059138764 -0.03601307 -0.11575276 -0.0023844661
-0.035219096 -0.08519943 0.007783733 -0.0021603366 -0.010993324 0.054506294 0.109029554 -0.024419997
-0.08220095 -0.13176215 -0.0361035 0.09005113 0.087040864 0.027251001 -0.062176637 0.09680801
0.018738136 0.011015279 -0.1297165 -0.008044133 -0.09411063 -0.02901822 -0.038416665 -0.0071205427
-0.047127727 0.005742078 0.031359237 -0.10059387 -0.105781354 -0.0011293973 0.05796474 -0.073986985
0.03454953 -0.014066754 0.027846027 0.007060094 -0.1380267 -0.0017797464 -0.011662789 0.06116823
0.04161406 -0.050520368 -0.07261336 0.061458826 -0.0077722827 0.04848624 0.11681683 -0.02941918
0.08823699 0.08434415 -0.12675066 0.106455326 -0.02905793 -0.05328029 0.11714449 -0.012511134
0.05224338 -0.052481025 -0.017619304 -0.054376706 0.073533155 0.08120046 0.026922615 0.03697143
0.09190413 0.0052189324 -0.03883339 0.04360853 -0.013006659 -0.097709745 0.015590804 0.004176327
0.11931252 0.008933869 0.057767533 -0.0046247044 0.10358629 0.0013499677 0.10349499 0.037908554
-0.12291329 0.030700253 0.08887349 -0.1134442 -0.11599129 -0.0068676956 -0.064734794 0.09782557
0.11664 -0.062001593 -0.031352945 -0.037044182 -0.02717965 -0.020747082 0.10485493 0.049744457
0.06980212 -0.010005955 0.00029690054 0.023432424 -0.09447409 0.03756105 -0.11666549 -0.06689699
0.03907677 0.010625332 0.10165394 0.055669036 0.033806317 -0.0627944 -0.09541923 -0.008039409
0.02864494 -0.045854565 0.0032768103 0.042733584 -0.014848871 -0.08820889 0.036457166 -0.036599614
0.10210429 0.06701434 0.081294045 0.021764934 -0.04508044 0.059588976 -0.010455934 0.10651262
-0.0038713033 -0.007504339 0.0129838735 0.075302705 -0.060167458 -0.12145028 -0.09197136 -0.01541083
-0.13363437 -0.12165286 0.033190735 0.104725204 -0.006475411 0.10377744 0.10758356 0.10056908
-0.049025048 0.06832756 -0.07456593 0.106516264 0.0041278577 0.033323616 0.04060673 0.07189019
-0.023569072 -0.11554437 -0.1085125 0.07179314 0.11961293 0.060894668 -0.03907724 -0.12094643
-0.07949685 -0.08372275 0.025554309 -0.07229726 0.0658697 -0.09975614 0.00737238 0.066706926
00000000: 8f58 cabd ef8f 31bd 4b63 8bbd ae74 ef3b
00000010: 1aa0 503d 97ce 45bc 57e7 9fbd a4b9 1f3d
00000020: b8c2 80bd ed2a ab3d 10bd 523d f8ae 0abd
00000030: 0705 a93b f486 4a3d d286 6abd fef9 253d
00000040: 1b17 2f3d 7829 95bd 6b8d 853d b3e4 8a3d
00000050: 2b67 75bd a629 e03b 060c 873d e819 a83c
00000060: 0e62 9c3d 059c 0f3d a01e c6bd e597 87bb
00000070: ea1a a93d f7ed edbd 9156 333d 4c94 863d
00000080: ad48 35bd 26fa a13d 5cd7 b13d f383 a63d
00000090: 9055 ae3d 700a 8d3d 7a7b 223d cb64 093d
000000a0: 3dd4 83bc 42c3 a7bd a1f5 a0bd 0c16 c2bc
000000b0: 27fe 02be 5c67 eabc 4de1 82bd 035a 96bd
000000c0: 96a5 b0bd 43de 13bc bac2 113d 3cbd a9bd
000000d0: 48ee 063d ff68 8d3d ec84 c5bd 5ba3 1b3d
000000e0: 2973 a43d bd28 8e3c 6ab8 df3d 6864 c2bd
000000f0: c097 af3d 7c74 a43d 25fc c23d 96bf 6dbd
00000100: 1d40 7d3d 662e 8f3d 334c f03d f84a 833d
00000110: 49db 87bc 4a04 d63d c903 a3bd 02cc 64bd
00000120: 2584 cd3d 2fdf 9f3c 30c7 92bd 2b69 903c
00000130: 938e 9c3a 84f4 a23a 0ab9 97bc a6ba 423d
00000140: eb3e fcbc 956b 31bd 7e3c b33d 4f35 7b3d
00000150: 7d3b 723d 7182 13bd c80f edbd b444 1cbb
00000160: e641 10bd 0a7d aebd af0e ff3b 6f94 0dbb
00000170: 581d 34bc fe41 5f3d e34a df3d 720c c8bc
00000180: f958 a8bd a8ec 06be 43e1 13bd ba6c b83d
00000190: 7b42 b23d 7e3d df3c eeac 7ebd 4743 c63d
000001a0: b880 993c 6e79 343c 67d4 04be 8acb 03bc
000001b0: 13bd c0bd 9eb7 edbc cb5a 1dbd 7153 e9bb
000001c0: 0109 41bd 0b28 bc3b 8b72 003d 2904 cebd
000001d0: e5a3 d8bd 4908 94ba 6f6c 6d3d 7d86 97bd
000001e0: cf83 0d3d 3e78 66bc 5a1d e43c 5c58 e73b
000001f0: df56 0dbe 6146 e9ba 4815 3fbc 8a8b 7a3d
00000200: 8173 2a3d 72ee 4ebd 50b6 94bd 40bc 7b3d
00000210: a2ae febb 8299 463d aa3d ef3d 7e00 f1bc
00000220: 98b5 b43d a0bc ac3d edca 01be 4005 da3d
00000230: e50a eebc 6f3c 5abd 73e9 ef3d 80fb 4cbc
00000240: 28fd 553d 58f6 56bd 5c56 90bc 1cba 5ebd
00000250: 8d98 963d 6d4c a63d d18c dc3c 5b6f 173d
00000260: 3c38 bc3d 9403 ab3b c30f 1fbd dc9e 323d
00000270: e219 55bc 0c1c c8bd 9270 7f3c 92d9 883b
00000280: 1f5a f43d 5d5f 123c a69d 6c3d d58a 97bb
00000290: 0c25 d43d 66f1 b03a 2ef5 d33d 0046 1b3d
000002a0: f7b9 fbbd 197f fb3c 4e03 b63d 6f55 e8bd
000002b0: d78c edbd 680a e1bb ad93 84bd c658 c83d
000002c0: f4e0 ee3d 62f5 7dbd f26b 00bd a4bb 17bd
000002d0: dba7 debc c9f5 a9bc 2ebe d63d d8c0 4b3d
000002e0: 6af4 8e3d 04f0 23bc 51a9 9b39 5bf5 bf3c
000002f0: a27b c1bd 9ed9 193d 51ee eebd 4a01 89bd
00000300: f70e 203d df15 2e3c f12f d03d 3705 643d
00000310: 7e78 0a3d 5a9a 80bd 286b c3bd bab7 03bc
00000320: cba8 ea3c ffd1 3bbd c1bf 563b 6909 2f3d
00000330: ae48 73bc dda6 b4bd 1c54 153d 7ae9 15bd
00000340: 0e1c d13d d03e 893d 7e7d a63d 604c b23c
00000350: 44a6 38bd 9213 743d 5e4f 2bbc 4a23 da3d
00000360: b1b5 7dbb f5e6 f5bb 50ba 543c 4e38 9a3d
00000370: 2772 76bd edba f8bd 7b5b bcbd b57d 7cbc
00000380: 73d7 08be 2225 f9bd 02f3 073d 2b7a d63d
00000390: af2f d4bb 4489 d43d c554 dc3d 29f7 cd3d
000003a0: 7dce 48bd 52ef 8b3d 06b6 98bd 3325 da3d
000003b0: fb42 873b 587e 083d 3e53 263d 2a3b 933d
000003c0: ed13 c1bc 87a2 ecbd cd3b debd 4808 933d
000003d0: a0f7 f43d b06c 793d 750f 20bd c3b2 f7bd
000003e0: 3fcf a2bd d576 abbd 4557 d13c 9610 94bd
000003f0: b1e6 863d f24c ccbd 0194 f13b a49d 883d
