models/tcn_HDFCBANK_NS.pt (torch, 138935 bytes, 19 tensors)

tcn.0.net.0.weight f4 [32, 4, 3]
0	0x3e4acefc	0.19805521
1	0xbe6a4e58	-0.22881448
2	0x3e057113	0.13031416
3	0x3d1f9b25	0.038966317
4	0x3d9529d3	0.07283368
5	0xbdfb502b	-0.1227115
6	0xbdddccaf	-0.10830056
7	0x3d9e6455	0.077339806
8	0x3e6099a7	0.21933614
9	0x3e83491a	0.2564171
10	0x3e3830d0	0.1798737
11	0x3d1f9996	0.03896483
12	0x3e7bf585	0.24605377
13	0xbdbb456f	-0.09144103
14	0xbe2d13a2	-0.1690202
15	0x3e248b85	0.16068847
16	0x3e670580	0.22560692
17	0xbe52d391	-0.20588519
18	0x3e8f4a9b	0.27986607
19	0x3d9f1815	0.07768265
20	0x3cd2cd55	0.025732676
21	0xbe1289c2	-0.14310363
22	0xbe3dfc52	-0.18553284
23	0xbe0a3e65	-0.13500364
24	0x3e767de4	0.24071461
25	0xbcbff279	-0.02343105
26	0xbe82b02b	-0.2552503
27	0xbe61e8e2	-0.22061494
28	0x3e131599	0.14363708
29	0x3de5d0d7	0.11221474
30	0x3e5d8af8	0.21635044
31	0x3e690641	0.22756292
32	0x3e4ccbcf	0.19999622
33	0xbe9227b4	-0.28545916
34	0x3e46ee80	0.19426918
35	0x3cd07d2e	0.025450315
36	0x3e82bc9f	0.2553453
37	0x3e6160d4	0.22009593
38	0xbdcfede9	-0.101528
39	0xbe8961c2	-0.26832396
40	0xbdb829e9	-0.08992369
41	0x3cc72b9d	0.024312789
42	0x3e50309c	0.20331043
43	0xbd325030	-0.043533504
44	0x3e116b55	0.142011
45	0x3df18ca3	0.117944025
46	0x3d938bb3	0.0720438
47	0x3e429ef9	0.19005956
48	0xbe7a8e4b	-0.24468343
49	0xbe21773f	-0.15768145
50	0xbe2faa28	-0.17154753
51	0xbdee8efd	-0.116483666
52	0x3e22e64b	0.15908162
53	0xbceabfe3	-0.028655952
54	0xbcbed08e	-0.023292806
55	0xbe42776a	-0.18990865
56	0xbe033e44	-0.12816721
57	0xbe022d3b	-0.12712567
58	0x3d931714	0.07182136
59	0x3e1947f2	0.14968851
60	0x3dff669d	0.12470744
61	0x3daec834	0.085342795
62	0xbe16c0b8	-0.14721954
63	0x3d12a9b7	0.035806384
64	0xbe83be7d	-0.2573127
65	0xbe1071dc	-0.14105934
66	0xbc14c5dd	-0.009080377
67	0xbe0ee93d	-0.13956161
68	0xbd239844	-0.039940134
69	0x3e25398a	0.1613523
70	0xbe00ffc0	-0.12597561
71	0xbd05f777	-0.032706704
72	0xbd556dd9	-0.052106712
73	0xbe008dd7	-0.12554108
74	0xbe44efbf	-0.19232081
75	0xbe1d450c	-0.1535837
76	0xbe3bc1fc	-0.18335718
77	0x3e05e606	0.13076028
78	0xbd14f207	-0.036363628
79	0x3e840fb7	0.2579324
80	0x3b953fff	0.004554748
81	0x3d577a4a	0.05260686
82	0x3d835114	0.06411949
83	0xbdb6f3bf	-0.0893321
84	0xbd5c16f5	-0.05373283
85	0xbe8333bd	-0.2562541
86	0x3cf2d409	0.029642122
87	0x3e37a095	0.17932351
88	0x3db51111	0.08841146
89	0x3e8a293e	0.2698459
90	0x3e753837	0.23947226
91	0x3caf4bd0	0.021398455
92	0xbe86163e	-0.26188844
93	0x3db09868	0.08622819
94	0x3de384ef	0.111093394
95	0x3e8c0211	0.27345327
96	0x3dac2cf1	0.084070094
97	0x3e4e883e	0.2016916
98	0x3d30c79d	0.043159116
99	0x3d326dbc	0.043561682
100	0xbafadbf0	-0.0019139033
101	0xbe69a3fd	-0.22816463
102	0xbd835ed0	-0.064145684
103	0x3e7a3f14	0.24438125
104	0x3e810ee3	0.2520667
105	0xbe06d09c	-0.13165516
106	0xbe0a419a	-0.13501588
107	0x3dcb3752	0.09922661
108	0x3d4ae13d	0.04953121
109	0xbd43e23c	-0.047823176
110	0x3da819d6	0.08208053
111	0x3dddda99	0.1083271
112	0xbe53c46d	-0.20680399
113	0xbd99ae91	-0.07503999
114	0xbde9409a	-0.11389275
115	0x3e735e01	0.23766328
116	0xbe864af3	-0.26229057
117	0x3d33ba1f	0.04387867
118	0xbe7524a3	-0.23939757
119	0xbe72e570	-0.23720336
120	0xbdd346ce	-0.10316239
121	0xbe52e5b7	-0.20595442
122	0x3da42c5d	0.08016274
123	0x3d9e947f	0.07743167
124	0xbe54acdf	-0.2076907
125	0xbe76c0b3	-0.24096946
126	0xbe724464	-0.23658901
127	0xbe51f245	-0.20502575
128	0x3d6bf9f4	0.05761142
129	0x3e34f2f2	0.17670801
130	0xbe6cca91	-0.23124148
131	0xbe445d16	-0.19176134
132	0x3e58cdde	0.21172282
133	0xbdc50e5b	-0.09621879
134	0x3e8be3e3	0.273223
135	0x3ddb0fe8	0.10696393
136	0xbda064bd	-0.07831714
137	0x3e8bf7dc	0.2733754
138	0xbcab13b4	-0.020883419
139	0xbd1cab0a	-0.038249053
140	0x3b1a582f	0.0023551097
141	0x3e547d3d	0.207509
142	0xbe562163	-0.20911174
143	0xbe4a498d	-0.1975462
144	0x3e2a55fe	0.16634366
145	0xbd4ec9dc	-0.050485477
146	0xbcd38147	-0.02581848
147	0x3d1d3972	0.038384862
148	0xbd164958	-0.03669104
149	0x3ccce4b8	0.025011405
150	0x3e7bd5f1	0.24593331
151	0xbe69d30b	-0.22834413
152	0xbc4f270b	-0.012643586
153	0x3cabf12a	0.02098902
154	0xbd2eae1a	-0.042646505
155	0xbe111c5b	-0.14170973
156	0xbd9c8ef9	-0.07644457
157	0xbe50acc2	-0.20378402
158	0x3e3f9755	0.18710072
159	0xbe720848	-0.23635972
160	0xbd0d1ff8	-0.034454316
161	0xbd63e20a	-0.05563549
162	0x3dfedf89	0.1244498
163	0x3e4f093e	0.2021837
164	0xbe46ddd3	-0.19420557
165	0x3ddd9fd7	0.10821503
166	0x3dacf509	0.08445174
167	0xbd2f1198	-0.042741388
168	0x3d8d42ac	0.06897482
169	0x3cbcbd89	0.023039596
170	0x3e79e2f0	0.24402976
171	0x3e566490	0.20936799
172	0xbe0ec735	-0.13943179
173	0x3d5d14f6	0.053975068
174	0x3e48e390	0.19618058
175	0xbe1d0318	-0.15333211
176	0x3e1b3356	0.15156302
177	0x3e0abeef	0.13549398
178	0xbdd3fcf6	-0.10350983
179	0x3c29c3c9	0.01036162
180	0xbe5e8ceb	-0.21733443
181	0x3d902417	0.070381336
182	0x3e24fc66	0.16111907
183	0x3e07bb93	0.13255148
184	0xbe0dd47e	-0.1385059
185	0x3dc4b93e	0.09605645
186	0xbdd108f2	-0.10206784
187	0x3e02a54a	0.12758365
188	0x3de2b758	0.11070126
189	0x3b8c0b25	0.0042737895
190	0x3cb8b17d	0.02254557
191	0x3e8adb89	0.27120617
192	0xbe892f9e	-0.26794142
193	0x3e41acb9	0.18913545
194	0x3df2c086	0.11853127
195	0xbe0c8df6	-0.13726029
196	0x3c2a85f5	0.010407914
197	0x3c831d5d	0.016005212
198	0x3e12104a	0.14264026
199	0xbe6d5bda	-0.2317957
200	0xbd3ac04e	-0.045593552
201	0xbdf2acbb	-0.11849352
202	0xbdf0443c	-0.11731765
203	0xbbb62550	-0.005558647
204	0xbe22328c	-0.15839595
205	0x3e806d93	0.25083598
206	0xbdd84800	-0.10560608
207	0x3e3a1206	0.18170938
208	0xbe0dfbfa	-0.13865653
209	0x3d51ac72	0.051189847
210	0xbd39aa09	-0.045328174
211	0xbe04d169	-0.12970509
212	0xbd7a5646	-0.061117433
213	0x3e2c2ce7	0.16814004
214	0xbd3645c8	-0.044500142
215	0x3e7c74c7	0.24653922
216	0x3da57dcd	0.08080635
217	0x3d0f51bf	0.03499007
218	0xbe6bc3ff	-0.23023985
219	0x3df2db7b	0.11858269
220	0x3e99e082	0.30054098
221	0x3e7f44d7	0.24928604
222	0xbe283390	-0.1642592
223	0x3e606155	0.21912129
224	0xbd43fdb5	-0.047849376
225	0xbe37a228	-0.17932951
226	0x3e6bbe71	0.23021866
227	0xbde046f3	-0.109510325
228	0x3e4e137e	0.20124623
229	0xbe696226	-0.22791347
230	0xbdee313c	-0.116304845
231	0xbe1d2e5b	-0.15349714
232	0xbe8b72f6	-0.27236146
233	0xbe1738da	-0.14767781
234	0x3cca057e	0.024660822
235	0xbe28a2c2	-0.16468337
236	0x3e8ad180	0.2711296
237	0x3e95908b	0.2921184
238	0xbe3cf87b	-0.18454163
239	0x3e1fe452	0.15614441
240	0x3e27faeb	0.16404311
241	0xbe340351	-0.1757939
242	0xbdc1fb97	-0.09471815
243	0x3d13941c	0.03602992
244	0x3dc4c712	0.09608282
245	0x3de6a506	0.112619445
246	0xbe151ac4	-0.14560992
247	0xbd9d10a2	-0.07669188
248	0x3d9fe1f0	0.07806766
249	0x3e8d2619	0.2756813
250	0xbda7122e	-0.081577644
251	0xbe1b8012	-0.15185574
252	0x3e6f20c9	0.2335235
253	0xbb6d35d4	-0.0036195414
254	0xbda8c0cb	-0.08239897
255	0x3be17ef3	0.0068815886

tcn.0.net.0.bias f4 [32]
0	0xbdb022a1	-0.08600355
1	0x3e200101	0.15625383
2	0x3dea21de	0.11432241
3	0xbb62e65f	-0.0034622175
4	0x3e6b181f	0.2295842
5	0xbe1c8ec8	-0.15288842
6	0x3e8249ec	0.25447023
7	0xbd3fb9ad	-0.046807934
8	0xbe91de7c	-0.28490055
9	0x3e22bb9c	0.1589188
10	0xbe56b00b	-0.20965593
11	0xbe4e4f60	-0.20147467
12	0x3d3be66e	0.04587405
13	0xbe6b0bf1	-0.22953774
14	0xbdf52359	-0.11969633
15	0xbc9aada2	-0.018881623
16	0x3dcfeaf9	0.10152239
17	0x3cf9523e	0.030434724
18	0xbd7eaa4c	-0.062174127
19	0xbe6fe599	-0.23427428
20	0xbe27ce92	-0.16387394
21	0xbe9649cb	-0.29353175
22	0x3dcc7b23	0.09984424
23	0x3dca922b	0.098911606
24	0xbe22e4a9	-0.1590754
25	0xbe23e79d	-0.16006322
26	0x3e938ee1	0.28819945
27	0xbdec9aa1	-0.115529306
28	0xbe6d7576	-0.23189339
29	0xbcfe6ff1	-0.031059237
30	0x3defc72d	0.11707912
31	0x3c13d02a	0.009021798

tcn.0.net.4.weight f4 [32, 32, 3]
0	0x3d9f9bda	0.07793398
1	0xbd8ee116	-0.069765255
2	0xbd0dd322	-0.03462518
3	0xbd8ab0fa	-0.06772037
4	0x3d3e0968	0.04639569
5	0xbb987f57	-0.004653852
6	0xbd995764	-0.074873716
7	0xbd9096e4	-0.0706003
8	0xbd0d6c1c	-0.03452693
9	0xbde1189b	-0.10991021
10	0xbd1a6ec1	-0.03770328
11	0xbda4b1f0	-0.080417514
12	0xbcab1357	-0.020883245
13	0x3d87d495	0.06632344
14	0xbda73fbd	-0.08166454
15	0x3d9e0b3b	0.07716986
16	0x3dc386f2	0.09547223
17	0x3da06e3f	0.07833528
18	0x3d2b0d63	0.041760813
19	0x3cd524c5	0.02601851
20	0xbd5e5bb3	-0.05428667
21	0x3cf57643	0.029963618
22	0xbd0099ba	-0.031396605
23	0x3d94a356	0.07257716
24	0x3d678f69	0.05653325
25	0x3d33c3f5	0.04388805
26	0x3d5097a3	0.050925862
27	0xbcb253dd	-0.021768505
28	0x3da947fc	0.08265683
29	0x3d257f82	0.040404804
30	0x3dab21c9	0.083560534
31	0xbd900e25	-0.07033948
32	0x3dc0f3bf	0.09421491
33	0xbcabf249	-0.020989554
34	0x3cab12be	0.02088296
35	0xbd80e4e8	-0.062936604
36	0xbd97f745	-0.0742021
37	0xbcf712ac	-0.03016027
38	0x3da490d5	0.08035437
39	0xbd5aca57	-0.053415623
40	0x3cac0239	0.020997154
41	0x3d86c658	0.065808
42	0xbd364c9d	-0.044506658
43	0xbccd1b05	-0.025037298
44	0x3d1024d1	0.03519136
45	0x3d497c78	0.04919097
46	0xbd61862a	-0.05505959
47	0x3d82a422	0.06378962
48	0xbd2a416e	-0.041566305
49	0xbd34b5ca	-0.04411868
50	0xbdb2c72c	-0.08729395
51	0x3cce0b4f	0.025151877
52	0x3d9dec19	0.07711048
53	0x3dd28f6b	0.10281261
54	0xbdbc7a0a	-0.092029646
55	0x3dad5e5f	0.084652655
56	0xbc81f46f	-0.015863625
57	0x3d63c13f	0.055604216
58	0x3db0e806	0.08638005
59	0x3d472845	0.04862239
60	0x3dccfa7a	0.10008712
61	0x3d844917	0.06459253
62	0x3db82a99	0.089925
63	0xbd987deb	-0.07445892
64	0x3d95faf8	0.07323259
65	0xbca9af80	-0.020713568
66	0xbd6fac3e	-0.058513872
67	0xbcb471ca	-0.022026915
68	0xbdcf602c	-0.10125765
69	0x3d829299	0.063756175
70	0xbdb84438	-0.08997387
71	0x3dba5d34	0.09099808
72	0x3d0fd18b	0.035111945
73	0xbd142f98	-0.0361782
74	0xbd57a4b1	-0.052647296
75	0xbd517884	-0.051140323
76	0x3d80f168	0.062960446
77	0x3d53e5ad	0.051732708
78	0x3d7cdd2b	0.06173436
79	0x3d105b44	0.035243288
80	0xbdac07d9	-0.08399934
81	0xbdb7fad8	-0.089833915
82	0x3c775838	0.015096717
83	0xbd456d83	-0.04820014
84	0x3d68f4e6	0.05687418
85	0xbb18b87e	-0.0023303325
86	0xbd86669a	-0.065625384
87	0xbd8eb705	-0.06968502
88	0x3cc4f3b4	0.024041988
89	0xbdc50f1b	-0.09622022
90	0xbd90413f	-0.07043695
91	0x3dac5b3b	0.08415838
92	0xbd5591d8	-0.05214104
93	0x3d7d27c4	0.0618055
94	0x3d8a80f7	0.06762879
95	0xbd877a91	-0.066151746
96	0xbd93a535	-0.07209245
97	0xbc520691	-0.012818948
98	0xbdd881c7	-0.10571628
99	0xbc8546bb	-0.016269078
100	0xbd598569	-0.053105745
101	0xbc100d80	-0.008792281
102	0xbd93cf55	-0.0721728
103	0xbcda4873	-0.026645875
104	0xbd80cb94	-0.062888294
105	0x3cefc52e	0.029268827
106	0xbd600ad7	-0.054697838
107	0x3b76b62d	0.0037645206
108	0x3af65d91	0.0018796196
109	0xbd0c7e3c	-0.034300074
110	0xbdb8cdb1	-0.090236075
111	0xbdc75ac1	-0.09734107
112	0xbd9baf00	-0.07601738
113	0xbcab98c1	-0.020946862
114	0xbd1b3cf8	-0.03789994
115	0xbc9093dd	-0.017648632
116	0x3d1dc38e	0.038516574
117	0xbb47eb98	-0.0030505415
118	0xbd2fc802	-0.04291535
119	0xbd17431f	-0.036929246
120	0xbd004d23	-0.031323563
121	0x3ced7aa9	0.028989153
122	0xbc14110a	-0.009037266
123	0x3d2d5f62	0.042327292
124	0xbd510ed8	-0.051039547
125	0xbd9bcbee	-0.07607256
126	0xbd01f8ef	-0.031731542
127	0xbdc05a04	-0.09392169
128	0x3cabaf10	0.0209575
129	0xbd3e2c01	-0.046428684
130	0x3da9511c	0.082674235
131	0x3c925a42	0.017865304
132	0xbdbcaa2d	-0.09212146
133	0x3d224245	0.03961398
134	0x3c02c746	0.007982081
135	0xbd9e7d6d	-0.07738767
136	0xbdcaf87d	-0.09910677
137	0xbceb42f7	-0.028718455
138	0xbda526a6	-0.08064012
139	0x3c7cf7cf	0.015439942
140	0xbdc70f6e	-0.0971974
141	0x3da06d1e	0.078333125
142	0x3d4f6bd7	0.050639953
143	0xbd0c2263	-0.03421248
144	0x3d8cfe71	0.06884468
145	0xbd3f8b92	-0.046763964
146	0x3d9eb32f	0.0774902
147	0xbc235992	-0.009970086
148	0x3dd20a1e	0.10255836
149	0x3b36bed2	0.0027884734
150	0x3dcaa415	0.098945774
151	0x3d905d4c	0.07049045
152	0x3d882e8c	0.06649503
153	0x3ac90d6e	0.0015339085
154	0x3c893540	0.016749024
155	0xbd959888	-0.07304484
156	0x3dcecf49	0.1009813
157	0x3c9d82ce	0.019227412
158	0xbd9099df	-0.070605986
159	0xbdd79887	-0.10527139
160	0xbd83892c	-0.06422648
161	0xbd9f5bff	-0.07781219
162	0x3dd7dab8	0.10539764
163	0x3d329d76	0.043607198
164	0xbda06a24	-0.07832745
165	0x3d98c30a	0.07459076
166	0x3dd2186a	0.10258563
167	0x3dbe2ad0	0.092855096
168	0xbd8c7e84	-0.068600684
169	0x3dc72cfa	0.097253755
170	0x3c8abff0	0.016937226
171	0xbc9e1435	-0.019296745
172	0xbd868b47	-0.06569534
173	0x3a113ebd	0.000554066
174	0x3d7a51ce	0.06111317
175	0x3dd3989d	0.10331843
176	0x3d828c38	0.06374401
177	0xbc9c52c0	-0.019082427
178	0x3d216676	0.039404355
179	0x3d9f8fef	0.07791125
180	0xbc7fe63a	-0.015618855
181	0xbd4b7921	-0.049676064
182	0xbd66616c	-0.056245252
183	0xbb55cf6c	-0.0032624854
184	0xbc9d9f4a	-0.019240994
185	0xbd317882	-0.043327816
186	0x3d5a8e3c	0.0533583
187	0x3dc38bb7	0.09548133
188	0xbd359eb2	-0.044340797
189	0xbcee36f6	-0.029078942
190	0xbd60b87d	-0.05486344
191	0xbd801464	-0.06253889
192	0x3d94cb42	0.07265331
193	0xbc2906d2	-0.0103165675
194	0x3db107c3	0.086440586
195	0xbcd2b878	-0.025722727
196	0xbcc393da	-0.023874212
197	0x3d9306a0	0.07178998
198	0x3dcf45a9	0.101207085
199	0x3d89ce8f	0.06728851
200	0x3c457180	0.012050986
201	0x3d9f0c8f	0.07766067
202	0x3b667425	0.0035164442
203	0x3dcb404b	0.09924372
204	0x3d82bca3	0.06383636
205	0xbbbee26c	-0.0058253314
206	0x3dd27124	0.10275486
207	0xbd7730df	-0.06034934
208	0x3dcb14da	0.099160865
209	0xbd05bb40	-0.03264928
210	0xbd7bd5d3	-0.061483216
211	0x3c9a7819	0.018856095
212	0x3cbc610f	0.0229955
213	0x3c73f79f	0.01489058
214	0xbc5abb6f	-0.013350352
215	0x3dc4f56b	0.09617122
216	0xbd9a3efb	-0.07531544
217	0x3cd5635c	0.026048355
218	0x3d593f05	0.053038616
219	0xbd81becc	-0.0633522
220	0xbd166f4c	-0.036727235
221	0x3d3f873d	0.046759833
222	0xbdc21ab6	-0.09477751
223	0x3c88dd96	0.016707223
224	0x3d2377a9	0.03990904
225	0x3da8e036	0.0824589
226	0x3db73bc3	0.089469455
227	0x3da68a1e	0.081318125
228	0x3cbdd0c6	0.02317084
229	0xbd1c8bd5	-0.03821929
230	0xbdbd3777	-0.09239095
231	0xbc9c1ca1	-0.01905662
232	0x3d91d6e0	0.07121062
233	0x3d9d151d	0.07670043
234	0x3d0e63a6	0.034763
235	0xbd19c9fa	-0.037546135
236	0xbdc718e2	-0.09721543
237	0xbc533e74	-0.012893308
238	0xbcf1a207	-0.029496206
239	0xbdbf658b	-0.0934554
240	0x3d9990ae	0.074982986
241	0x3d30f7bf	0.04320502
242	0x3da87a9a	0.082265094
243	0xbc325b29	-0.010885992
244	0x3cd9670a	0.02653839
245	0x3d9c73c2	0.076392666
246	0xbd8dce64	-0.069241315
247	0xbd459aee	-0.048243456
248	0xbb24f24a	-0.002516883
249	0xbdbebd69	-0.09313471
250	0xbd892b33	-0.06697693
251	0xbdbb519b	-0.091464244
252	0xbd58f9be	-0.052972548
253	0x3d066f6d	0.032821108
254	0xbdb5bf51	-0.08874381
255	0xbdbff189	-0.09372241

tcn.0.net.4.bias f4 [32]
0	0x3c9622a7	0.01832707
1	0xbda9c261	-0.08289028
2	0x3dc1851b	0.09449216
3	0xbd34ee86	-0.044172786
4	0x3d4377fe	0.047721855
5	0xbdc1642e	-0.09442936
6	0x3d3b8da4	0.045789376
7	0x3c88a9a5	0.016682455
8	0xbd6310be	-0.05543589
9	0x3d02761b	0.031850915
10	0x3b8faddc	0.0043847393
11	0x3d8b97b4	0.068160444
12	0xbd4fe18d	-0.05075221
13	0xbbd0cb1b	-0.0063718683
14	0xbd77d604	-0.060506836
15	0x3d1e573d	0.038657416
16	0xbd8fc73f	-0.07020425
17	0x3d19103b	0.037368994
18	0x3d6ad4ba	0.057331778
19	0x3d5e1559	0.054219577
20	0xbca13e7d	-0.019683117
21	0xbc6796ab	-0.014135043
22	0x3d616cb6	0.055035315
23	0xbc16d413	-0.009205836
24	0x3b5c954b	0.0033658321
25	0xbd13c0e8	-0.03607264
26	0x3cbbb5de	0.02291387
27	0x3d5e7580	0.054311275
28	0x3bdbc44d	0.0067067505
29	0xbd304ac9	-0.04304007
30	0xbd2ae262	-0.0417198
31	0xbc934adc	-0.017980032

tcn.0.downsample.weight f4 [32, 4, 1]
0	0x3e8f6c2f	0.28012225
1	0xbe6418d6	-0.22275099
2	0x3e6f81ce	0.2338936
3	0x3ee8b889	0.4545329
4	0x3e38f3e5	0.18061788
5	0x3eabfc2b	0.33590826
6	0x3ebecbe6	0.37264937
7	0x3e43acc7	0.19108878
8	0x3d684bbe	0.05671286
9	0xbe017bd2	-0.1264489
10	0xbd1c6603	-0.038183223
11	0x3ecaefcd	0.39636078
12	0x3e958af0	0.29207563
13	0xbded00e3	-0.11572435
14	0x3d3cc1d9	0.046083305
15	0x3e8f03cf	0.27932593
16	0x3e88c6ce	0.26714176
17	0x3ebfc629	0.37455872
18	0xbebffc60	-0.37497234
19	0x3d21fcde	0.039547794
20	0x3e2c96db	0.16854422
21	0xbd0a0590	-0.03369671
22	0xbc5a45cb	-0.013322304
23	0x3ed7bac7	0.42134687
24	0x3edce92f	0.43146655
25	0xbe7ed2e3	-0.24885134
26	0xbd6b3eb2	-0.057432838
27	0xbe146bf2	-0.14494303
28	0xbeafd3ec	-0.3434137
29	0x3e78b46c	0.24287575
30	0xbe7a24ef	-0.24428152
31	0xbebeecf1	-0.37290147
32	0x3dbf0d2f	0.093286864
33	0x3e7a8b80	0.24467278
34	0xbde57021	-0.112030275
35	0x3eceed8d	0.40415612
36	0x3ce25ce4	0.027632184
37	0x3eb5a4ac	0.35477197
38	0xbd0c8f20	-0.034316182
39	0xbeebc083	-0.46045312
40	0xbdc8be32	-0.09801902
41	0x3e182f45	0.14861782
42	0xbe76f2d2	-0.24116066
43	0x3ec9d3a6	0.39419287
44	0xbe413f86	-0.18871889
45	0xbd90c5b1	-0.07068957
46	0xbe6ac3bc	-0.22926229
47	0xbea6beeb	-0.32567534
48	0x3c5d7ec8	0.013518997
49	0x3dbd1b3a	0.09233709
50	0x3d531f61	0.051543597
51	0x3ed81277	0.42201588
52	0x3eecf4df	0.46280572
53	0xbef453a9	-0.47720078
54	0xbecb36cb	-0.3969024
55	0x3e908467	0.28226015
56	0x3ebb4e61	0.36583236
57	0xbee1e556	-0.44120282
58	0x3b3ba970	0.0028634928
59	0xbec58408	-0.38577294
60	0xbccb5aee	-0.024823632
61	0x3e9e6085	0.30933014
62	0xbdb55f94	-0.08856121
63	0x3e81bab7	0.25337765
64	0xbeaef340	-0.3416996
65	0xbec2e19a	-0.38062745
66	0xbe87b795	-0.2650725
67	0x3df1a323	0.11798694
68	0xbe9a9f94	-0.30199873
69	0x3eb2cfea	0.3492425
70	0xbe9e567d	-0.3092536
71	0xbe46a29b	-0.19397967
72	0xbe82404a	-0.25439674
73	0x3c0cab54	0.00858577
74	0x3e364ecc	0.17803496
75	0x3e8e1636	0.2775132
76	0x3e8d1b10	0.2755971
77	0x3e5263d3	0.20545892
78	0x3ef7c7dd	0.4839467
79	0x3e4482e7	0.1919056
80	0x3d2a63c1	0.04159904
81	0x3e47379b	0.19454806
82	0x3e86edac	0.26353204
83	0xbec2248c	-0.37918508
84	0x3e389d92	0.18028858
85	0x3dbed0a2	0.09317137
86	0x3dceae75	0.10091869
87	0xbb71e93b	-0.0036912698
88	0x3be30ba6	0.006928879
89	0x3ee20cf7	0.44150516
90	0xbedaff45	-0.4277288
91	0x3e8fa2c0	0.28053856
92	0x3e885904	0.26630414
93	0xbec6413e	-0.3872165
94	0x3ea27138	0.31727004
95	0x3ddd212b	0.10797342
96	0x3ddb954e	0.10721837
97	0x3ed8c44c	0.42337263
98	0x3e1aaee2	0.15105775
99	0xbc821fc9	-0.015884297
100	0xbdf9eb57	-0.12203091
101	0xbee8745c	-0.45401275
102	0x3ed885fe	0.42289728
103	0x3db0d8bd	0.086350895
104	0xbead288a	-0.3381999
105	0xbe5091c7	-0.2036811
106	0x3ef53919	0.47895125
107	0x3ed4deec	0.41576326
108	0x3e926a40	0.28596687
109	0xbe81e801	-0.25372317
110	0xbedf343b	-0.43594536
111	0x3e2e8f4e	0.17046854
112	0x3e84cc5c	0.25937164
113	0xbef3fe58	-0.47654986
114	0xbe55d96b	-0.2088372
115	0xbe98c873	-0.2984043
116	0xbe59d0e1	-0.21271087
117	0x3ee336b3	0.4437767
118	0x3de2ad50	0.11068213
119	0xbbca8984	-0.006180944
120	0xbe8b991a	-0.27265245
121	0xbe9942e9	-0.2993386
122	0x3eeecec3	0.46642122
123	0x3eec588f	0.46161315
124	0xbe997c7d	-0.2997779
125	0xbd80e913	-0.062944554
126	0xbe92d2ac	-0.28676355
127	0x3ede9b29	0.43477753

tcn.0.downsample.bias f4 [32]
0	0x3eb76f28	0.35826993
1	0x3e8d1496	0.27554768
2	0x3ce49708	0.027904049
3	0xbe04a9fb	-0.12955467
4	0xbee3546a	-0.4440034
5	0x3ee80397	0.4531524
6	0x3e88790f	0.2665486
7	0xbefb2829	-0.49054077
8	0x3dbbba3e	0.09166382
9	0x3e97a3d2	0.29617172
10	0xbe4aba1b	-0.19797556
11	0xbec6c68b	-0.3882335
12	0x3e6a6654	0.22890598
13	0x3ee33932	0.44379574
14	0x3dd406b6	0.103528425
15	0x3ed63354	0.41836035
16	0xbe3be9f5	-0.18350966
17	0xbd23effd	-0.040023793
18	0x3e7c929e	0.24665305
19	0x3ed093fd	0.40737906
20	0xbd2eafc5	-0.042648096
21	0x3eabad28	0.33530545
22	0x3e9cd729	0.30632904
23	0x3ea5bfe5	0.32372966
24	0xbeeac45d	-0.45852938
25	0xbc8843f4	-0.016633965
26	0xbefbaa71	-0.49153474
27	0xbef85cbe	-0.48508257
28	0x3eef814e	0.4677834
29	0xbdbe9e31	-0.09307516
30	0x3ec7ec97	0.3904769
31	0xbe3a2858	-0.18179452

tcn.1.net.0.weight f4 [32, 32, 3]
0	0xbd7936c4	-0.060843244
1	0x3d6fe932	0.058572
2	0x3caa2aa8	0.020772293
3	0x3c6e0b1a	0.014529014
4	0xbd84c107	-0.064821295
5	0x3c90832d	0.017640674
6	0x3b8d50a6	0.0043125926
7	0xbdd9d36e	-0.1063603
8	0x3d87e71a	0.06635876
9	0x3dc299d3	0.09501996
10	0xbd944eb9	-0.07241578
11	0x3cd1bd07	0.02560283
12	0xbd8670bf	-0.06564473
13	0x3d916a8f	0.071004026
14	0xbda10a9c	-0.07863352
15	0xbdc51d64	-0.096247464
16	0x3db54259	0.088505454
17	0x3dbb020a	0.09131248
18	0xbdde27ad	-0.10847411
19	0xbc2ff4c9	-0.010739514
20	0xbd4da518	-0.050206274
21	0x3d427985	0.04747917
22	0xbdc27458	-0.09494847
23	0xbd2b903d	-0.041885603
24	0xbc49479f	-0.012285142
25	0x3d547bb3	0.05187578
26	0xbdaca09a	-0.0842907
27	0xbd356c65	-0.044292826
28	0xbdc93e37	-0.0982632
29	0x3db08c7b	0.086205445
30	0x3d41acbd	0.047283877
31	0xbd2cdb91	-0.042201582
32	0xbd89abaf	-0.06722199
33	0x3db0dc75	0.08635799
34	0x3cbeff82	0.023315195
35	0x3c9a0cf5	0.018805007
36	0x3da72d37	0.08162921
37	0xbd4cbb9e	-0.049983613
38	0x3c9813d1	0.018564137
39	0x3d2130ce	0.039353184
40	0x3d9aa91d	0.07551787
41	0xbc050b5a	-0.008120382
42	0xbbd4836c	-0.0064853933
43	0x3db54984	0.088519126
44	0xbd475a47	-0.04867008
45	0xbdd551a0	-0.10415959
46	0x3d17617c	0.036958203
47	0x3c2a7cea	0.010405758
48	0x3d6597cf	0.05605298
49	0xbdb9766a	-0.09055789
50	0xbca37627	-0.0199538
51	0xbd3f0c33	-0.046642493
52	0xbda9a1a8	-0.082827866
53	0xbd383f49	-0.04498223
54	0xbc81d7ea	-0.015850026
55	0x3d8e622d	0.06952319
56	0xbd382966	-0.044961356
57	0xbca57b63	-0.020200437
58	0xbd8a6f66	-0.06759529
59	0x3d7404df	0.059574958
60	0xbd445674	-0.04793401
61	0xbdbe5a79	-0.092946
62	0xbc89e741	-0.016833903
63	0x3dacdb2b	0.084402405
64	0xbd32bacc	-0.043635175
65	0x3d1f5c89	0.038906608
66	0x3b985414	0.004648695
67	0x3d816b6b	0.063193165
68	0x3d359218	0.04432878
69	0x3d71a44d	0.05899458
70	0x3cb19b6b	0.021680554
71	0xbd1cb69e	-0.038260095
72	0x3a893143	0.0010466952
73	0xbd0729d4	-0.032998875
74	0xbda91ec4	-0.08257821
75	0xbd9edd4a	-0.07757051
76	0x3c8c4936	0.017124753
77	0x3d3aba01	0.045587543
78	0x3d8325eb	0.06403717
79	0x3cea648e	0.028612401
80	0xbda574dc	-0.0807893
81	0x3d6ce56c	0.05783598
82	0x3d3d56d6	0.04622539
83	0x3d5ab424	0.05339445
84	0xb8cb9fd5	-9.709565e-05
85	0xbbbe3f3d	-0.0058058784
86	0xbcad460e	-0.021151569
87	0x3d442055	0.047882397
88	0xbbafada3	-0.0053612753
89	0xbd839afa	-0.06426044
90	0xbc7d32e5	-0.015454029
91	0xbda59a59	-0.0808608
92	0x3db0981b	0.08622762
93	0xbdb4759b	-0.08811494
94	0xbcead4f6	-0.028666
95	0x3d999445	0.07498983
96	0x3d914aab	0.0709432
97	0x3da7e806	0.08198552
98	0x3d296546	0.041356348
99	0xbda19678	-0.07890028
100	0x3da213da	0.07913943
101	0x3a300713	0.00067149213
102	0x3d57f967	0.052728083
103	0xbdca865e	-0.0988891
104	0x3d7c8feb	0.06166069
105	0x3c8df6be	0.01732957
106	0x3c1e2c6c	0.009654146
107	0x3d698421	0.057010774
108	0xbd6ef274	-0.05833669
109	0xbd217f0f	-0.039427813
110	0xbbdc4607	-0.006722215
111	0xbda08f3a	-0.07839818
112	0xbc9ea858	-0.019367382
113	0xbdcb1e1a	-0.09917851
114	0xbd8aeb9b	-0.067832194
115	0x3cc4f15d	0.024040872
116	0x3d341fe6	0.043975733
117	0xbc43cee6	-0.011951184
118	0xbdb47fda	-0.08813448
119	0x3d4d6f75	0.05015512
120	0xbd4323ce	-0.047641568
121	0x3d7c851c	0.06165038
122	0xbdb939d8	-0.09044236
123	0x3dacb613	0.084331654
124	0xbdc587e9	-0.096450634
125	0xbdd83f6a	-0.1055897
126	0xbd9c275e	-0.07624696
127	0xbd8f2d4e	-0.06991063
128	0x3cd38fbb	0.025825372
129	0x3cb3750a	0.021906395
130	0x3aeb89d9	0.0017970159
131	0x3d988b30	0.07448423
132	0x3d7d1240	0.061784983
133	0x3dbbd308	0.091711104
134	0xbd1ecca2	-0.03876937
135	0xbc10f7ce	-0.008848144
136	0xbd8336c7	-0.06406932
137	0xbcfa53cb	-0.030557534
138	0xbc47ff9c	-0.012206938
139	0xbd7c0d4a	-0.06153611
140	0x3da65e82	0.08123495
141	0xbd5e7a29	-0.05431572
142	0x3ce8ff87	0.028442157
143	0x3d8bd9b0	0.0682863
144	0x3d8dbb2c	0.06920466
145	0xbd8ad353	-0.06778588
146	0x3da58fc6	0.08084063
147	0x3c5964c0	0.01326865
148	0xbdac56c3	-0.08414986
149	0x3c9b8c41	0.018987777
150	0x3b584f1b	0.0033006135
151	0xbd97d9a1	-0.07414556
152	0x3d4d3622	0.050100453
153	0x3d7bcee4	0.061476603
154	0x3bdc54e3	0.0067239865
155	0x3c049e0d	0.008094323
156	0x3dacc96c	0.08436856
157	0x3dc8ce43	0.09804966
158	0xbd070785	-0.032966156
159	0xbd3ec500	-0.046574593
160	0xbd51fe1c	-0.05126773
161	0x3da525df	0.08063864
162	0x3d0e32ba	0.034716345
163	0xbd95c580	-0.07313061
164	0xbdd27715	-0.10276619
165	0xbca525ca	-0.02015962
166	0xbd050e3d	-0.03248428
167	0x3d8c87bc	0.06861827
168	0x3c1e1b5f	0.00965008
169	0xbbeeecf0	-0.0072914287
170	0xbd8c9197	-0.068637066
171	0xb8ebc188	-0.00011241721
172	0xbd960126	-0.07324438
173	0x3c095225	0.008381401
174	0x3cbf6031	0.023361297
175	0x3b9a92c0	0.004717201
176	0x3dce1850	0.10063231
177	0x3cfa8eb1	0.030585619
178	0xbdcf4acb	-0.101216875
179	0x3d8ece51	0.069729455
180	0xbd32913b	-0.043595534
181	0xbd8a032a	-0.06738885
182	0x3ca157be	0.019695159
183	0xbd31cae9	-0.0434064
184	0x3bc79bf5	0.0060915896
185	0x3da48e6a	0.08034976
186	0x3dcd7fd8	0.1003415
187	0xbd673871	-0.05645031
188	0xbce5044d	-0.027956152
189	0xbd6a247d	-0.057163704
190	0x3d984c35	0.0743641
191	0xbd8cafa3	-0.068694375
192	0xbdabaf48	-0.083830416
193	0x3dca4cec	0.09877953
194	0xbd9e87e5	-0.077407636
195	0xbc990350	-0.018678337
196	0xbd7008b8	-0.058602065
197	0xbc66dc5f	-0.0140906265
198	0xbd857768	-0.065169156
199	0x3db4cac8	0.0882774
200	0x3ddcdd90	0.10784447
201	0xbc3966ae	-0.011315985
202	0xbd8c615d	-0.06854508
203	0xbd07c22c	-0.03314416
204	0xbc590481	-0.013245703
205	0xbcbdf10a	-0.023186225
206	0x3ce56e0a	0.028006572
207	0xbd55b3ab	-0.052173298
208	0xbd688ccd	-0.056774903
209	0xbdb6942d	-0.08914981
210	0x3dcc80d5	0.0998551
211	0x3c841c87	0.016126884
212	0x3d312684	0.043249622
213	0x3d998a4f	0.074970834
214	0x3d68e212	0.056856222
215	0x3d9cbf07	0.07653623
216	0x3c4ff8f8	0.012693636
217	0xbdc24376	-0.094855234
218	0x3d08549a	0.033283807
219	0xbd830bbc	-0.063987225
220	0x3d4d1fc4	0.050079122
221	0xbdb4812c	-0.088137
222	0x3c612d1f	0.013743668
223	0xbd5e0562	-0.054204352
224	0xbd7468b1	-0.059670154
225	0xbcd7ff80	-0.02636695
226	0x3d875846	0.06608634
227	0xbd6f830a	-0.058474578
228	0xbd93383d	-0.07188461
229	0x3d086fd9	0.03330979
230	0xbd128c65	-0.035778422
231	0x3d7da4e0	0.061924815
232	0xbd86aa78	-0.06575483
233	0x3d88f821	0.06687952
234	0xbd1926c1	-0.037390474
235	0xbb9c90c8	-0.0047780015
236	0xbd2abdda	-0.041684963
237	0x3bfef94c	0.0077811833
238	0xbcc9e51c	-0.02464538
239	0x3dba5e70	0.09100044
240	0xbd14253b	-0.03616832
241	0x3d9f7a63	0.07787015
242	0xbdad191a	-0.08452053
243	0xbd061f36	-0.03274461
244	0xbcc344bc	-0.023836486
245	0xbb0924ee	-0.0020926553
246	0xbdcb9d70	-0.09942138
247	0x3cab296f	0.02089378
248	0xbc88518b	-0.016640445
249	0x3d851ed5	0.06500021
250	0x3d96577b	0.07340904
251	0xbcab3782	-0.020900492
252	0xbd8541df	-0.065067045
253	0xbd766c4b	-0.06016187
254	0xbdb5050f	-0.088388555
255	0x3dada138	0.08478016

tcn.1.net.0.bias f4 [32]
0	0x3d283779	0.041068528
1	0xbd963c7e	-0.07335757
2	0x3daf19a4	0.085498124
3	0x3da412eb	0.08011421
4	0x3d337223	0.04381002
5	0xbdd46192	-0.103701726
6	0xbdb18af3	-0.086690806
7	0xbd98cd23	-0.07461002
8	0x3cc232dd	0.023705894
9	0x3ccbea29	0.02489193
10	0xbd99e445	-0.07514242
11	0xbd9933a4	-0.07480553
12	0x3ccaaf71	0.02474186
13	0xbbd1ab2d	-0.0063985796
14	0xbdc9b1f4	-0.09848395
15	0xbce24b2d	-0.027623737
16	0x3b5459d6	0.003240218
17	0xbcb6c210	-0.022309333
18	0x3da52318	0.08063334
19	0xbd6b3860	-0.05742681
20	0xbd94a6f8	-0.07258409
21	0xbdc95ed4	-0.0983254
22	0xbd5b154c	-0.053487107
23	0xbd967941	-0.07347346
24	0xbb582b7a	-0.0032984898
25	0xbd6d8414	-0.057987288
26	0x3cd4e797	0.025989337
27	0xbd064b02	-0.032786377
28	0xbdc7d6e7	-0.09757786
29	0xbd91c38a	-0.07117374
30	0xbd22c205	-0.039735813
31	0x3d99ec2a	0.07515748

tcn.1.net.4.weight f4 [32, 32, 3]
0	0xbcc5f382	-0.024163965
1	0xbd875ed0	-0.06609881
2	0xbd80ecd3	-0.06295171
3	0x3d933906	0.07188611
4	0x3d817bdc	0.063224524
5	0x3dbed09f	0.09317135
6	0x3d0da5b3	0.03458185
7	0xbde28b67	-0.11061745
8	0xbdc3d65f	-0.095623724
9	0x3c551d53	0.01300748
10	0x3da8dba6	0.082450196
11	0x3d30a974	0.043130353
12	0x3d8fdffc	0.070251435
13	0xbcbe635e	-0.023240741
14	0xbd5086c4	-0.050909773
15	0x3d5421fd	0.051790226
16	0x3c4f26b2	0.012643503
17	0x3dd1678c	0.10224828
18	0xbd1fb18e	-0.03898769
19	0xbd0d8c35	-0.03455754
20	0xbd41f5f7	-0.04735371
21	0xbda6aae9	-0.08138067
22	0x3dd23b35	0.10265199
23	0xbd8b7f9f	-0.06811451
24	0xbdc800b2	-0.097657576
25	0x3cf5d064	0.030006595
26	0xbd6e628b	-0.058199447
27	0x3d40d402	0.047077186
28	0xbdbbcc23	-0.09169795
29	0xbd91b54c	-0.07114658
30	0xbcc6f2c3	-0.02428568
31	0x3c9db86f	0.019252984
32	0x3c7a3545	0.0152714895
33	0xbdb48e6c	-0.08816227
34	0x3b2418f4	0.0025039287
35	0xbd052942	-0.03251005
36	0x3c0d1474	0.008610833
37	0x3d927a2b	0.07152208
38	0x3d575303	0.0525694
39	0xbd1e1fcf	-0.038604554
40	0x3d9681fa	0.0734901
41	0xbd36874e	-0.04456263
42	0xbdd2bba9	-0.102896996
43	0x3da49077	0.08035367
44	0xbb88c1dd	-0.004173501
45	0xbdab7675	-0.08372203
46	0xbc2485e1	-0.010041685
47	0xbdad218b	-0.084536634
48	0x3d5b68ee	0.053566866
49	0xbd6c0216	-0.057619177
50	0xbdbbc064	-0.09167555
51	0xbdc0cb04	-0.09413722
52	0x3d873a61	0.06602932
53	0xbd079a14	-0.033105925
54	0xbc9f1b5e	-0.01942223
55	0xbd801f3e	-0.06255959
56	0x3d220437	0.0395548
57	0xbd308d08	-0.043103248
58	0x3a51e087	0.00080061745
59	0xbd48a3cc	-0.048984334
60	0x3d959823	0.073044084
61	0x3d42af42	0.04753042
62	0xbc2ef358	-0.010678135
63	0x3d457db0	0.048215568
64	0xbcee1490	-0.02906254
65	0xbd5c05fe	-0.053716652
66	0x3cec0550	0.028811127
67	0x3d8c5967	0.0685299
68	0xbd5cf7d4	-0.053947285
69	0xbdad2992	-0.084551945
70	0xbd9e79f0	-0.077381015
71	0xbd864753	-0.06556573
72	0x3d6fee20	0.058576703
73	0x3d2daf0a	0.04240326
74	0x3d059788	0.032615215
75	0x3c4b07c1	0.012391985
76	0xbda7d1b1	-0.08194292
77	0xbd9f13e1	-0.077674635
78	0x3d838fb6	0.06423895
79	0xbd92ff57	-0.071776085
80	0xbd247e7f	-0.0401597
81	0x3c95b987	0.018276943
82	0x3da0c599	0.07850189
83	0xbd53153c	-0.051533923
84	0x3d1134e6	0.03545084
85	0x3d617e15	0.05505188
86	0x3dda4675	0.1065797
87	0xbdbf1b2b	-0.09331354
88	0x3d83073d	0.06397865
89	0xbd8de29c	-0.06927988
90	0xbd32e8c7	-0.043679025
91	0xbc9e86a3	-0.01935131
92	0xbc4f0c3e	-0.012637196
93	0x3d0a1315	0.033709604
94	0x3a0d703e	0.00053954485
95	0xbdb2cefb	-0.08730885
96	0xbabd2cd0	-0.0014432911
97	0xbdb7e291	-0.08978761
98	0xbd812775	-0.06306354
99	0xbd77ae08	-0.060468704
100	0xbd8f49b0	-0.06996477
101	0x3db3c7cd	0.08778343
102	0xbbbcc576	-0.005760844
103	0xbdb7c734	-0.08973542
104	0xbdb85bde	-0.09001897
105	0xbdb9737f	-0.09055232
106	0x3d526ffa	0.05137632
107	0xbd1facdb	-0.038983207
108	0x3cfc907f	0.03083062
109	0x3db648b0	0.08900583
110	0x3d29cf3e	0.041457407
111	0xbda308fe	-0.079606995
112	0xbd5b3a8a	-0.053522624
113	0x3d8a2efd	0.067472436
114	0x3d8dd601	0.06925584
115	0x3db2406a	0.08703692
116	0x3cc7a7aa	0.02437194
117	0xbd482a03	-0.04886819
118	0x3c346738	0.011010937
119	0x3c3450c7	0.011005587
120	0xbcd5a0f3	-0.026077723
121	0x3bf5fd88	0.00750703
122	0xbdcdee84	-0.10055259
123	0x3d12d6ef	0.035849508
124	0xbbb9e318	-0.0056728236
125	0xbceb6575	-0.028734902
126	0x3dcda467	0.10041123
127	0xbc6ec10e	-0.014572395
128	0xbd2e4333	-0.042544555
129	0xbd9d2359	-0.07672758
130	0xbbb832c6	-0.005621287
131	0x3bce8bcc	0.006303286
132	0xba377dde	-0.00069996517
133	0x3d88071c	0.06641981
134	0xbd53406f	-0.05157512
135	0xbde0e5b5	-0.10981313
136	0x3dc27316	0.09494607
137	0x3d95b08d	0.07309065
138	0x3bb89a6f	0.0056336443
139	0x3cdc6bac	0.02690681
140	0x3d013004	0.031539932
141	0xbd036b3b	-0.032084685
142	0xbdd39531	-0.103311904
143	0x3d722008	0.05911258
144	0x3d3b56db	0.04573713
145	0x3d21b9a2	0.039483674
146	0x3dc3017b	0.09521767
147	0x3d50ea46	0.05100467
148	0xbb93dbce	-0.0045122867
149	0x3ca52448	0.020158902
150	0x3978546d	0.00023682574
151	0x3d015fec	0.03158562
152	0x3dc40750	0.09571707
153	0xbcc5bb85	-0.024137268
154	0x3d8ae532	0.06781997
155	0xbdc04d92	-0.09389795
156	0x3c13eea6	0.009029066
157	0x3bcf847e	0.006332933
158	0xbd8367e6	-0.064163014
159	0xbdb51996	-0.08842771
160	0x3d91506a	0.07095416
161	0xbd710d30	-0.058850467
162	0xbd8d360a	-0.06895073
163	0x3d53a6f2	0.051672883
164	0x3d3ad710	0.045615256
165	0x3d14c84e	0.036323838
166	0xbd2f3245	-0.04277255
167	0xbcff702c	-0.031181417
168	0x3d8d1e36	0.06890528
169	0x3c28bc31	0.010298775
170	0x3c1258ea	0.008932332
171	0x3d9a0a28	0.075214684
172	0xbd83ab7f	-0.06429195
173	0x3d8dbc17	0.06920641
174	0xbca5832b	-0.020204147
175	0x3dc7281c	0.09724447
176	0x3c95161c	0.01819902
177	0x3db0613c	0.08612296
178	0xbd852296	-0.06500737
179	0x3d825e1b	0.063656054
180	0x3dca322d	0.098728515
181	0x3d8c4913	0.06849875
182	0x3d857384	0.065161735
183	0xbd70b85e	-0.058769576
184	0xbd841527	-0.06449347
185	0xbd6640aa	-0.056214012
186	0x3dced96c	0.10100064
187	0x3db7ad62	0.08968617
188	0x3cbbffa8	0.022949055
189	0x3d4e97d2	0.050437756
190	0xbcdf4831	-0.027256103
191	0x3c7711c0	0.0150799155
192	0x3da1963d	0.07889984
193	0x3d0e7b3d	0.034785498
194	0x3dac3163	0.08407857
195	0x3da0fe39	0.07860989
196	0xbccf0421	-0.025270524
197	0xbdbf0921	-0.09327913
198	0x3df8001b	0.12109395
199	0x3bb5a49f	0.005543306
200	0x3c977aae	0.018491115
201	0x3da02ce8	0.07821065
202	0xbd58360c	-0.052785918
203	0x3bac2d17	0.0052543986
204	0xbd831cfc	-0.06402013
205	0xbda0047e	-0.07813357
206	0xbdbf8e4f	-0.09353315
207	0xbdb44509	-0.0880223
208	0xbdad7265	-0.08469085
209	0xbd5dabc0	-0.05411887
210	0x3dad2e3e	0.084560856
211	0x3b208714	0.0024494575
212	0x3dadf45e	0.08493875
213	0x3cd38986	0.025822412
214	0x3d4c3c7a	0.049862362
215	0xbc97ec63	-0.018545335
216	0xbcad6f75	-0.02117131
217	0xbd9671c7	-0.0734592
218	0x3dd45fad	0.10369811
219	0x3d778e8a	0.06043867
220	0xbdaa7edc	-0.08324978
221	0x3d81d1fe	0.06338881
222	0xbd650ae7	-0.0559186
223	0xbd8443cd	-0.064582445
224	0x3dba793e	0.09105156
225	0x3d701984	0.058618084
226	0x3daac749	0.08338792
227	0xbd8c450a	-0.06849106
228	0xbd93fcb7	-0.07225936
229	0xbd751a2f	-0.059839424
230	0x3d86b6d4	0.065778404
231	0xbcada308	-0.021195903
232	0x3d397386	0.045276187
233	0x3d396055	0.045257885
234	0x3b615be2	0.0034387042
235	0xbbd5f53a	-0.0065294774
236	0xbdb6ee76	-0.089322016
237	0x3df15698	0.117840946
238	0xbd96d06f	-0.07363974
239	0x3cc5d75b	0.024150541
240	0xbdb7a620	-0.08967233
241	0xbd9c2aca	-0.07625349
242	0xbc94625c	-0.018113308
243	0xbd7ddab4	-0.06197615
244	0xbce81b20	-0.028333247
245	0xbd9f4bef	-0.07778155
246	0xbc92bc27	-0.017911984
247	0xbd96aefb	-0.073575936
248	0xbcc28bf2	-0.023748372
249	0x3d4ac41f	0.049503442
250	0xbda5fc94	-0.08104816
251	0x3c37a4fb	0.011208768
252	0xbd765362	-0.060138114
253	0xbd065515	-0.032795984
254	0xbd473c37	-0.04864141
255	0xbd99a64f	-0.07502424

tcn.1.net.4.bias f4 [32]
0	0xbd68424e	-0.056703858
1	0x3dbac263	0.091191076
2	0xbdab1edf	-0.083554976
3	0x3db6c97c	0.08925149
4	0xbd7e4253	-0.06207497
5	0x3c258991	0.010103599
6	0x3db0a4d4	0.086251885
7	0x3db8ac59	0.09017248
8	0x3d1e6801	0.038673405
9	0xbd43aabe	-0.047770254
10	0xbdd54392	-0.10413279
11	0xbd92010b	-0.07129105
12	0x3d495810	0.04915625
13	0xbd42fbb7	-0.047603335
14	0x3c0d214f	0.008613898
15	0xbd443e84	-0.047911182
16	0xbd1849ef	-0.037179884
17	0x3da30954	0.079607636
18	0x3dac9c62	0.08428265
19	0xbd64e2cb	-0.05588035
20	0x3d03f955	0.032220203
21	0x3d3e90c8	0.046524793
22	0xbd988ee8	-0.07449132
23	0xbcadaf7e	-0.021201845
24	0xbcaaaf55	-0.020835558
25	0x3b2464d2	0.0025084508
26	0xbc47031d	-0.012146738
27	0x3c99a396	0.018754762
28	0x3d605c7c	0.0547757
29	0xbda160a3	-0.0787976
30	0x3d9c281d	0.076248385
31	0xbd89ff20	-0.06738114

tcn.2.net.0.weight f4 [64, 32, 3]
0	0xbbb2a5ce	-0.0054518944
1	0x3d98e701	0.074659355
2	0xbdaff155	-0.08590952
3	0xbdbea79c	-0.09309313
4	0xbdb0f66a	-0.0864075
5	0x3d2c1ed2	0.04202158
6	0xbd6271e1	-0.055284385
7	0xbcb5d40b	-0.022195837
8	0x3c706fd6	0.014675101
9	0x3da99988	0.08281237
10	0x3bfadd05	0.007655742
11	0x3d0f5bac	0.034999534
12	0x3da95696	0.08268468
13	0x3d1df5f2	0.03856463
14	0xbdace126	-0.08441381
15	0x3d607520	0.0547992
16	0xbd961df3	-0.07329931
17	0x3cdaea5e	0.026723083
18	0x3b109dd1	0.0022066722
19	0xbd9d01c2	-0.07666351
20	0x3c9fef60	0.019523323
21	0x3d75aa6b	0.059976976
22	0xbda28ebd	-0.079373814
23	0xbceef520	-0.02916962
24	0x3d9dab28	0.07698661
25	0x3d9a1c20	0.07524896
26	0xbd07f6f5	-0.0331945
27	0xbd827fd5	-0.06372038
28	0xbd099959	-0.03359351
29	0x3d88b00a	0.06674202
30	0x3d196a1c	0.03745471
31	0x3d260b3a	0.04053805
32	0xbc39d573	-0.011342394
33	0xbdaadfdc	-0.08343479
34	0xbd816381	-0.06317807
35	0xbdced8ac	-0.10099921
36	0xbc431434	-0.011906672
37	0x3d8dcf19	0.06924266
38	0xba6eb198	-0.0009105443
39	0xbca45824	-0.02006156
40	0x3d33d35e	0.043902747
41	0x3cf3f518	0.029779956
42	0xbdce3ce0	-0.10070205
43	0x3daac13b	0.08337637
44	0x3d53a5fe	0.051671974
45	0x3db79583	0.08964064
46	0x3d9f2433	0.07770576
47	0xbdc7cfb4	-0.09756413
48	0xbd8299fa	-0.06377025
49	0xbcf71b33	-0.030164337
50	0xbda4be45	-0.080441035
51	0xbd8eddf4	-0.06975928
52	0xbd994c67	-0.07485276
53	0xbd25c701	-0.040472988
54	0xbdd2dc70	-0.10295951
55	0x3d8cadab	0.06869062
56	0xbda6d088	-0.08145243
57	0x3cdf0f4b	0.027228972
58	0xbbb1d915	-0.0054274895
59	0x3d96fb5d	0.073721625
60	0x3d8c56e2	0.06852509
61	0x3c9d7c4e	0.019224312
62	0xbcf0bde0	-0.029387414
63	0x3d7177ed	0.05895226
64	0xbd1d43ac	-0.038394615
65	0xbdb241d5	-0.08703963
66	0xbc2468cd	-0.010034752
67	0x3cdb028c	0.026734613
68	0x3d95810f	0.073000066
69	0x3c881b2b	0.016614517
70	0x3d132b4b	0.03592996
71	0x3cc27114	0.02373556
72	0xbd28a827	-0.041175988
73	0xbd5c7fd7	-0.053832855
74	0x3c11ab21	0.008890898
75	0xbdac790b	-0.084215246
76	0x3d5b41b7	0.053529467
77	0x3bd1803c	0.0063934606
78	0x3d6d23fa	0.057895638
79	0x3d83c043	0.064331554
80	0x3d445453	0.04793198
81	0x3d1a891e	0.03772842
82	0xbb02cee7	-0.001995975
83	0x3db9d343	0.09073498
84	0x3c0ec197	0.008713148
85	0xbc318eab	-0.010837237
86	0x3cfd606b	0.030929765
87	0x3b2c6070	0.0026302598
88	0xbd0c4d88	-0.034253627
89	0xbd6bca60	-0.057566047
90	0xbd027e46	-0.031858705
91	0xbc897026	-0.01677711
92	0xbda31248	-0.07962471
93	0x3d72b792	0.059257098
94	0xbd1d7c58	-0.03844866
95	0x3cc583de	0.02411073
96	0x3daeb1eb	0.08530029
97	0xbd134e5f	-0.035963412
98	0xbdbc0ec2	-0.09182502
99	0xbd550bf9	-0.05201337
100	0xbdd05d9a	-0.10174103
101	0x3d8f046e	0.06983267
102	0x3d6c1cdd	0.057644714
103	0x3c25877c	0.010103103
104	0x3ce78df9	0.02826594
105	0x3d177432	0.036976047
106	0xbb82dffc	-0.003993986
107	0xbb105a03	-0.0022026307
108	0x3d88a487	0.06672006
109	0x3d3fb5c6	0.046804212
110	0x3d13827d	0.036013115
111	0xbb37b99c	-0.0028034216
112	0xbd218732	-0.039435573
113	0xbc79a18e	-0.015236272
114	0x3d50cf9c	0.05097924
115	0x3d8c0c09	0.06838233
116	0xbd11eedb	-0.03562818
117	0x3d3c39af	0.04595345
118	0x3cbdcbd7	0.023168487
119	0xbd68e68a	-0.056860484
120	0xbd85bfac	-0.06530699
121	0x3d6c3364	0.057666197
122	0x3d9ac733	0.075575255
123	0xbd84792f	-0.064684264
124	0x3dbd266e	0.092358455
125	0xbdd95b4e	-0.10613118
126	0xbd3aa3ac	-0.045566246
127	0xbdbb1b31	-0.09136046
128	0x3d098e4f	0.03358298
129	0xbd878cbe	-0.06618641
130	0xbc8321ab	-0.016007265
131	0xbd4f0aa2	-0.05054725
132	0xbda3a922	-0.07991244
133	0xbdd9d521	-0.10636354
134	0x3d9ead4e	0.07747899
135	0x3cffec61	0.031240644
136	0x3c57c96a	0.013170579
137	0xbdacc5a2	-0.08436133
138	0xbccafa95	-0.02477769
139	0xbdcf1605	-0.10111622
140	0x3d395207	0.045244243
141	0xbd953605	-0.07285694
142	0xbcb51fb3	-0.022109842
143	0xbdcc15ba	-0.099650815
144	0x3c909371	0.01764843
145	0xbbaa87ad	-0.005204162
146	0xbd2e3058	-0.042526573
147	0x3c92b915	0.01791052
148	0x3d691654	0.05690606
149	0xbcbbe04a	-0.022934098
150	0xbd393bea	-0.045223154
151	0xbdcc8c79	-0.099877305
152	0x3d95bfcd	0.07311974
153	0xbdac0458	-0.08399266
154	0xbdbea444	-0.09308675
155	0xbdcc1f7b	-0.09966942
156	0x3cfd7be8	0.030942872
157	0xbd954c22	-0.07289912
158	0xbd4b91d8	-0.049699634
159	0xbdb746fb	-0.08949085
160	0xbdafbf8c	-0.085814565
161	0xbd5eee95	-0.05442675
162	0xbc9abf70	-0.018890113
163	0x3d24924c	0.040178582
164	0xbd2d0f22	-0.04225076
165	0x3d549ed6	0.05190929
166	0x3d6ce371	0.057834093
167	0x3daab216	0.083347484
168	0xbdd29698	-0.1028263
169	0xbda6a48d	-0.08136854
170	0xbdda47d1	-0.10658229
171	0xbc404457	-0.0117350435
172	0xbd0ed707	-0.034873035
173	0x3d63cf9d	0.055617917
174	0xbdb4b670	-0.0882386
175	0xbc8fe17b	-0.017563572
176	0xbd1e606f	-0.038666185
177	0x3da3da18	0.080005825
178	0x3cfed00c	0.031105064
179	0xbd66d943	-0.05635954
180	0xbda49aee	-0.08037363
181	0xbd06f5b3	-0.03294916
182	0xbdd3165c	-0.10306999
183	0xbcc2e4bc	-0.02379071
184	0x3d622752	0.05521328
185	0xbdaa3416	-0.08310716
186	0x3cae365c	0.021266155
187	0xbdd78720	-0.1052382
188	0xbcb9f2e6	-0.02269883
189	0xbdc922ec	-0.09821114
190	0x3d8ce450	0.06879485
191	0x3dbeb30b	0.093114935
192	0x3c3098ea	0.010778645
193	0xbdb1164f	-0.08646833
194	0x3cdc48a1	0.0268901
195	0xbd70e30a	-0.05881027
196	0x3d95bb7d	0.07311151
197	0xbd9632d5	-0.07333914
198	0x3d7af6d3	0.061270546
199	0xbba6a849	-0.005085979
200	0x3d8b79db	0.068103515
201	0xbd8707cf	-0.06593286
202	0xbdd1e8b1	-0.102494605
203	0xb984279f	-0.00025206522
204	0x3d863647	0.06553321
205	0xbdd2f005	-0.10299686
206	0xbc7121c9	-0.014717528
207	0x3d91668f	0.070996396
208	0xbdd3dcb2	-0.10344829
209	0x3d5393e6	0.05165472
210	0xbdbba7ba	-0.09162851
211	0x3d3fe651	0.046850506
212	0xbdc2611e	-0.0949118
213	0xbdb880fd	-0.090089776
214	0xbd6e1019	-0.05812082
215	0x3da5fe37	0.08105128
216	0xbdd96ec8	-0.10616833
217	0xbd0e691d	-0.034768213
218	0x3cd97d94	0.026549138
219	0xbd9c32f3	-0.07626905
220	0xbcde97d2	-0.027172003
221	0xbcfd070b	-0.030887147
222	0xbd32bc28	-0.04363647
223	0x3d9dcc34	0.07704964
224	0xbd39c4c4	-0.045353666
225	0x3c88ae03	0.016684538
226	0x3dac9b5b	0.08428069
227	0xbc1becaf	-0.009516879
228	0xbd500719	-0.05078802
229	0x3d641249	0.0556815
230	0xbd14be8e	-0.03631454
231	0x3d8047cf	0.062636964
232	0xbd994a96	-0.07484929
233	0xbdcf6f59	-0.1012866
234	0xbd51f751	-0.05126125
235	0xbd6035a3	-0.054738652
236	0x3c04a88b	0.008096824
237	0xbd096ad3	-0.03354914
238	0xbdae4104	-0.085084945
239	0xbc0b2faa	-0.008495251
240	0xbd14ddf8	-0.0363445
241	0xbb8bac9e	-0.004262521
242	0xbc95aed3	-0.01827184
243	0xbdb9a9f1	-0.09065617
244	0xbd769dd4	-0.06020911
245	0xbcc62393	-0.024186885
246	0x3bdb0e58	0.0066850595
247	0xbcda389c	-0.026638322
248	0x3cae4e6c	0.021277629
249	0xbd708e26	-0.058729313
250	0x3c3bc5f2	0.011460768
251	0xbd3b507b	-0.04573105
252	0xbdb7277d	-0.08943079
253	0x3daa3cb8	0.083123624
254	0xbc0dfa89	-0.008665689
255	0xbdc61994	-0.096728474

tcn.2.net.0.bias f4 [64]
0	0xbd401116	-0.046891294
1	0xbd96ad1f	-0.07357239
2	0xbda51131	-0.080599196
3	0xbd65d183	-0.05610801
4	0xbd915ae6	-0.070974156
5	0x3d77a87f	0.060463425
6	0x3d9972d4	0.07492605
7	0xbdb98fd5	-0.09060637
8	0x3d82c389	0.063849516
9	0x3d4ef2c5	0.05052449
10	0x3c44b3b7	0.012005738
11	0xbca38379	-0.019960152
12	0x3dab5164	0.083651334
13	0xbcba6920	-0.022755206
14	0x3bc7c59f	0.0060965563
15	0x3ca1f1c3	0.019768601
16	0xbb708222	-0.003669866
17	0xbdc8e06a	-0.098084286
18	0x3d82bff9	0.06384272
19	0x3da3e434	0.08002511
20	0x3c020420	0.007935554
21	0xbdadb3a8	-0.08481532
22	0x3d76c88c	0.06024985
23	0x3dc1a04d	0.09454403
24	0xbda37bf6	-0.07982628
25	0x3db5f0c0	0.0888381
26	0x3da29996	0.079394504
27	0x3b9cbc69	0.0047832024
28	0x3d9964c3	0.07489922
29	0xbdcbd213	-0.09952178
30	0xbdb0c5e8	-0.086314976
31	0x3d150e3a	0.03639052
32	0xbd7e79ea	-0.062127985
33	0x3cca622a	0.024705011
34	0x3d96e13b	0.07367178
35	0x3d993ec9	0.074826784
36	0x3dba49fb	0.09096142
37	0xbdaaffe8	-0.083495915
38	0xbdadc900	-0.08485603
39	0xbd946c15	-0.072471775
40	0xbd23fb4f	-0.04003459
41	0x3d89fa5f	0.067372076
42	0x3dbd6f45	0.092497386
43	0x3d077e37	0.033079352
44	0x3dc68fc6	0.09695391
45	0x3d999670	0.07499397
46	0xbd0cfb32	-0.034419246
47	0xbd1e354c	-0.038625047
48	0xbccf1096	-0.025276463
49	0xbd51265c	-0.051061973
50	0x3c374409	0.011185654
51	0xbdd11df5	-0.10210792
52	0x3cad3122	0.021141592
53	0xbb666f78	-0.0035161655
54	0xbd9541da	-0.07287951
55	0xbcfd1a38	-0.030896291
56	0x3dafe310	0.085882306
57	0xbd3b3d14	-0.045712546
58	0xbbd2afcb	-0.0064296476
59	0xbcc4d1e0	-0.024025857
60	0xbd3de832	-0.046364017
61	0xbd0ff017	-0.035141077
62	0x3b537a34	0.0032268884
63	0xbca3a4c8	-0.019976035

tcn.2.net.4.weight f4 [64, 64, 3]
0	0xbd3b3149	-0.0457013
1	0x3c930149	0.017944949
2	0x3cf752fa	0.030190933
3	0xbd42b4b2	-0.047535606
4	0xbd68197b	-0.056664925
5	0x3d30258e	0.043004565
6	0x3d8cf889	0.06883342
7	0x3cd23b87	0.02566315
8	0xbcab9519	-0.020945119
9	0x3b71dceb	0.003690536
10	0x3cb59eeb	0.022170505
11	0x3d84c438	0.06482738
12	0xbd89d4f8	-0.06730074
13	0xbcf45748	-0.029826775
14	0xbd8b2ce4	-0.067956716
15	0x3cd1e540	0.02562201
16	0x3d12a283	0.035799515
17	0xbd816d5b	-0.06319686
18	0xbd6a2e2d	-0.057172943
19	0x3d859b5b	0.06523772
20	0x3c4ed232	0.012623357
21	0x3d645ec9	0.055754457
22	0xbd41c3ce	-0.047305875
23	0x3d155d16	0.036465727
24	0xbc01e4d0	-0.007928088
25	0xbd739a31	-0.05947322
26	0xbc350340	-0.011048138
27	0x3d82526f	0.06363379
28	0xbd2e37a9	-0.04253355
29	0xbcdc3303	-0.026879793
30	0xbd90ad61	-0.070643194
31	0xbb86297a	-0.0040943
32	0x3d34b297	0.04411563
33	0xbcb3ef41	-0.021964671
34	0x3d1800bd	0.03711008
35	0x3bc0a0b6	0.0058785332
36	0xbd9b3041	-0.07577563
37	0xbd71f862	-0.059074767
38	0x3d2e8d50	0.042615235
39	0xbd80977c	-0.06278893
40	0xbd4b12f4	-0.049578622
41	0xbd198e18	-0.037489027
42	0x3d67c1d8	0.05658135
43	0xbc844a4c	-0.016148709
44	0xbcb733bc	-0.022363536
45	0xba89b875	-0.0010507243
46	0x3d654450	0.05597335
47	0x3aaa1795	0.0012976999
48	0xbcc5aeb2	-0.024131153
49	0xbcb406ce	-0.021975901
50	0xbb78b591	-0.003795002
51	0x3d893ed7	0.06701439
52	0x3d53bf8f	0.051696356
53	0xbd7fe7ac	-0.0624768
54	0x3c513119	0.012768053
55	0xbd61de0b	-0.055143397
56	0x3c9d582d	0.019207085
57	0xbceaa6dc	-0.028644018
58	0x3bbcdc98	0.0057636015
59	0xbc566e9f	-0.013087898
60	0x3d7467f8	0.059669465
61	0xbcba4827	-0.022739483
62	0xbd821258	-0.06351155
63	0xbcd7bfa9	-0.026336508
64	0xbcbb469b	-0.022860816
65	0xbc079462	-0.008275123
66	0x3d0545be	0.032537214
67	0xbd991e07	-0.074764304
68	0xbaad0591	-0.0013200511
69	0xbc05dd99	-0.008170509
70	0xbcf4b55b	-0.029871633
71	0x3c28ad66	0.010295248
72	0xbb8063f4	-0.0039181653
73	0x3cae002a	0.021240313
74	0xbd86f984	-0.0659056
75	0xbba671b1	-0.005079471
76	0xbd8c6b99	-0.0685646
77	0xbcf43ca8	-0.02981408
78	0x3d78743e	0.060657732
79	0xbd84b3be	-0.064795956
80	0xbca2d80e	-0.019878414
81	0xbd8886c4	-0.066663295
82	0x3d390f69	0.045180712
83	0x3d1626a6	0.03665795
84	0xbd99ada5	-0.07503823
85	0xbd786918	-0.0606471
86	0x3c4fdf0e	0.012687458
87	0xbd2fe084	-0.042938724
88	0x3c845726	0.016154837
89	0xbc7a8209	-0.015289792
90	0xbd356d1b	-0.044293504
91	0x3d2a33f3	0.04155345
92	0x3caf657c	0.021410696
93	0xbda8f12f	-0.08249127
94	0x3d5267a4	0.05136837
95	0xbd4a1b48	-0.049342424
96	0x3d763b97	0.060115423
97	0x3c7b72b1	0.015347169
98	0x3d613846	0.054985307
99	0xbd6c3f6f	-0.057677682
100	0xbd1df7be	-0.038566343
101	0xbd8983de	-0.06714605
102	0xbbc9ac5f	-0.0061545814
103	0xbcf48e27	-0.02985294
104	0xbd935bcf	-0.071952455
105	0x3d84fdee	0.06493746
106	0x3c311a4e	0.010809494
107	0xbd8e9b99	-0.06963272
108	0xbc984966	-0.018589687
109	0x3bc00508	0.005859975
110	0x3d1e5b6f	0.038661417
111	0x3c6bc1a3	0.014389428
112	0x3cceb67c	0.0252335
113	0x3c942080	0.018081903
114	0xbb928ea3	-0.00447257
115	0x3c07c114	0.0082857795
116	0xbd4d8d3a	-0.050183512
117	0x3d2862af	0.041109737
118	0x3c5b8faf	0.013400956
119	0x3d73639b	0.059421163
120	0x3d1a096d	0.037606645
121	0x3d6a674e	0.057227425
122	0x3c5b0dc7	0.013369984
123	0x3a8a83fb	0.0010567898
124	0xbd99a53c	-0.07502219
125	0x3d2a141d	0.041523088
126	0xbcc7656d	-0.024340356
127	0x3c0559aa	0.008139053
128	0xbd1d6a72	-0.038431592
129	0x3cdc75df	0.026911674
130	0xbd6acaa1	-0.05732215
131	0x3d0fcf24	0.035109654
132	0xbd834c37	-0.06411021
133	0xbd3a7085	-0.045517463
134	0xbd8d7bad	-0.06908355
135	0x3cf15d8a	0.029463548
136	0x3d31dd0a	0.04342369
137	0xbbd9fc70	-0.0066524073
138	0xbcedc7a5	-0.029025862
139	0xbd776f11	-0.060408656
140	0xbd9ab30b	-0.07553681
141	0xbd71b021	-0.05900586
142	0xbd59524c	-0.053057
143	0xbd9775b1	-0.07395495
144	0x3d8bffff	0.06835937
145	0x3d5beb0b	0.05369095
146	0x3c167676	0.009183517
147	0xbc054324	-0.008133683
148	0x3d507f34	0.05090256
149	0xbcb17657	-0.021662874
150	0xbbb098bf	-0.0053893025
151	0xbd6d3ac9	-0.05791739
152	0xbd38bfb4	-0.045104697
153	0xbd24c083	-0.040222656
154	0x3d2b03a8	0.041751534
155	0x3c92e145	0.017929683
156	0xbc5456cd	-0.012960148
157	0x3d76d9e5	0.060266394
158	0xbcf79e48	-0.030226842
159	0xbd8ceadd	-0.06880734
160	0x3d2003ca	0.039066114
161	0xbc4ab42b	-0.012372057
162	0x3c196095	0.009361406
163	0xbcdab70b	-0.02669861
164	0xbd1e6163	-0.038667094
165	0x3c69846f	0.014252766
166	0xbad155f1	-0.0015971047
167	0x3c1a23a7	0.009407914
168	0x3cc593c9	0.024118321
169	0x3d3f6e8e	0.046736293
170	0x3b3f0e9b	0.0029152993
171	0xbd9f0f1b	-0.07766553
172	0xbd91dd94	-0.07122341
173	0xbd637220	-0.05552876
174	0xbd8f6ac0	-0.07002783
175	0x3ba5bf31	0.005058192
176	0xbd8028b7	-0.06257766
177	0x3c3495fb	0.011022086
178	0xbcc4d612	-0.024027858
179	0xbd75b78f	-0.05998951
180	0xbd3997fc	-0.04531096
181	0xbcf58558	-0.02997081
182	0x3d84edd0	0.06490672
183	0xbceea1cb	-0.029129883
184	0xbd811bb9	-0.06304116
185	0x3d527232	0.051378436
186	0x3c9892d9	0.01862471
187	0x3d723d3a	0.05914042
188	0x3c9b31b9	0.018944608
189	0x3cf565c0	0.029955745
190	0xbd44e946	-0.04807403
191	0xbd6d6b10	-0.05796343
192	0x3d27ea2b	0.040994804
193	0x3c2c6455	0.010521968
194	0x3b929fba	0.0044746073
195	0xbcf6e0eb	-0.030136546
196	0xbd847c54	-0.06469026
197	0xbd071f18	-0.032988638
198	0xbccfedb1	-0.025381895
199	0xbd025324	-0.03181757
200	0xbd8995c5	-0.067180194
201	0xbd81b63c	-0.063335866
202	0x3cf935c8	0.030421153
203	0x3d689f79	0.05679271
204	0x3d797acd	0.060908128
205	0x3c2d20f4	0.010566939
206	0x3d40f313	0.047106814
207	0xbc9425fa	-0.018084515
208	0x3cb2b52e	0.021814909
209	0xbc4e7a18	-0.012602352
210	0xbda3869f	-0.07984661
211	0xbd8917ea	-0.06694014
212	0x3cf7f11c	0.030266337
213	0xbcbd7891	-0.02312878
214	0xbd727469	-0.05919305
215	0xbc835be0	-0.01603502
216	0x3c8e4e0f	0.017371206
217	0xbcc3d81d	-0.023906762
218	0x3d471d3a	0.048611857
219	0x3d650879	0.055916283
220	0x3cb8d053	0.022560274
221	0xbd6a169c	-0.05715047
222	0xbd52094a	-0.05127839
223	0xbcfa7384	-0.03057266
224	0xbc90367d	-0.017604107
225	0x3d4a410d	0.049378444
226	0xbda219e3	-0.07915094
227	0x3d621803	0.05519868
228	0x3d0f32c9	0.034960542
229	0xbd8d6582	-0.06904127
230	0x3d0ed7fb	0.034873944
231	0xbd868e32	-0.0657009
232	0x3c84a5c2	0.01619232
233	0x3c9a9b5d	0.018872911
234	0x3b5d5d1a	0.0033777417
235	0x3d430146	0.047608636
236	0x3d0d36c4	0.034476057
237	0x3d5a3af1	0.053278867
238	0xbd93a0ac	-0.0720838
239	0x3c28fbf8	0.01031398
240	0x3d488049	0.048950467
241	0xbc18ea6e	-0.009333236
242	0xbd40737a	-0.046985127
243	0x3d70672f	0.058692154
244	0x3d2d0c95	0.042248327
245	0x3d197aee	0.03747075
246	0x3ce2295d	0.027607614
247	0xbd1d0bd8	-0.038341373
248	0x3c838bc0	0.016057849
249	0xbd0eed6a	-0.034894384
250	0xbccc6460	-0.024950206
251	0xbadde281	-0.0016928465
252	0x3cd42135	0.02589474
253	0xb85c6370	-5.2544696e-05
254	0xbd6ec171	-0.05828995
255	0x3c18e0cd	0.00933094
